{
  "layers" : [
    {
      "pad_r" : 1,
      "fused_relu" : 0,
      "fused_tanh" : 0,
      "debug_info" : "input.1",
      "pad_fill_mode" : 0,
      "pad_b" : 1,
      "pad_l" : 1,
      "top" : "input.1",
      "blob_weights" : 3,
      "K" : 3,
      "blob_biases" : 1,
      "name" : "input.1",
      "has_batch_norm" : 0,
      "type" : "convolution",
      "n_groups" : 1,
      "pad_t" : 1,
      "has_biases" : 1,
      "C" : 64,
      "bottom" : "input",
      "weights" : {

      },
      "Nx" : 3,
      "pad_mode" : 0,
      "pad_value" : 0,
      "Ny" : 3,
      "n_parallel" : 1
    },
    {
      "pad_r" : 1,
      "fused_relu" : 0,
      "fused_tanh" : 0,
      "debug_info" : "input.3",
      "pad_fill_mode" : 0,
      "pad_b" : 1,
      "pad_l" : 1,
      "top" : "input.3",
      "blob_weights" : 7,
      "K" : 64,
      "blob_biases" : 5,
      "name" : "input.3",
      "has_batch_norm" : 0,
      "type" : "convolution",
      "n_groups" : 1,
      "pad_t" : 1,
      "has_biases" : 1,
      "C" : 32,
      "bottom" : "input.1",
      "weights" : {

      },
      "Nx" : 3,
      "pad_mode" : 0,
      "pad_value" : 0,
      "Ny" : 3,
      "n_parallel" : 1
    },
    {
      "alpha" : 0.20000000298023224,
      "bottom" : "input.3",
      "weights" : {

      },
      "mode" : 2,
      "debug_info" : "x1.1",
      "top" : "x1.1",
      "type" : "activation",
      "name" : "x1.1"
    },
    {
      "weights" : {

      },
      "debug_info" : "input.5",
      "top" : "input.5",
      "type" : "concat",
      "name" : "input.5",
      "bottom" : "input.1,x1.1"
    },
    {
      "pad_r" : 1,
      "fused_relu" : 0,
      "fused_tanh" : 0,
      "debug_info" : "input.7",
      "pad_fill_mode" : 0,
      "pad_b" : 1,
      "pad_l" : 1,
      "top" : "input.7",
      "blob_weights" : 11,
      "K" : 96,
      "blob_biases" : 9,
      "name" : "input.7",
      "has_batch_norm" : 0,
      "type" : "convolution",
      "n_groups" : 1,
      "pad_t" : 1,
      "has_biases" : 1,
      "C" : 32,
      "bottom" : "input.5",
      "weights" : {

      },
      "Nx" : 3,
      "pad_mode" : 0,
      "pad_value" : 0,
      "Ny" : 3,
      "n_parallel" : 1
    },
    {
      "alpha" : 0.20000000298023224,
      "bottom" : "input.7",
      "weights" : {

      },
      "mode" : 2,
      "debug_info" : "x2.1",
      "top" : "x2.1",
      "type" : "activation",
      "name" : "x2.1"
    },
    {
      "weights" : {

      },
      "debug_info" : "input.9",
      "top" : "input.9",
      "type" : "concat",
      "name" : "input.9",
      "bottom" : "input.1,x1.1,x2.1"
    },
    {
      "pad_r" : 1,
      "fused_relu" : 0,
      "fused_tanh" : 0,
      "debug_info" : "input.11",
      "pad_fill_mode" : 0,
      "pad_b" : 1,
      "pad_l" : 1,
      "top" : "input.11",
      "blob_weights" : 15,
      "K" : 128,
      "blob_biases" : 13,
      "name" : "input.11",
      "has_batch_norm" : 0,
      "type" : "convolution",
      "n_groups" : 1,
      "pad_t" : 1,
      "has_biases" : 1,
      "C" : 32,
      "bottom" : "input.9",
      "weights" : {

      },
      "Nx" : 3,
      "pad_mode" : 0,
      "pad_value" : 0,
      "Ny" : 3,
      "n_parallel" : 1
    },
    {
      "alpha" : 0.20000000298023224,
      "bottom" : "input.11",
      "weights" : {

      },
      "mode" : 2,
      "debug_info" : "x3.1",
      "top" : "x3.1",
      "type" : "activation",
      "name" : "x3.1"
    },
    {
      "weights" : {

      },
      "debug_info" : "input.13",
      "top" : "input.13",
      "type" : "concat",
      "name" : "input.13",
      "bottom" : "input.1,x1.1,x2.1,x3.1"
    },
    {
      "pad_r" : 1,
      "fused_relu" : 0,
      "fused_tanh" : 0,
      "debug_info" : "input.15",
      "pad_fill_mode" : 0,
      "pad_b" : 1,
      "pad_l" : 1,
      "top" : "input.15",
      "blob_weights" : 19,
      "K" : 160,
      "blob_biases" : 17,
      "name" : "input.15",
      "has_batch_norm" : 0,
      "type" : "convolution",
      "n_groups" : 1,
      "pad_t" : 1,
      "has_biases" : 1,
      "C" : 32,
      "bottom" : "input.13",
      "weights" : {

      },
      "Nx" : 3,
      "pad_mode" : 0,
      "pad_value" : 0,
      "Ny" : 3,
      "n_parallel" : 1
    },
    {
      "alpha" : 0.20000000298023224,
      "bottom" : "input.15",
      "weights" : {

      },
      "mode" : 2,
      "debug_info" : "x4.1",
      "top" : "x4.1",
      "type" : "activation",
      "name" : "x4.1"
    },
    {
      "weights" : {

      },
      "debug_info" : "input.17",
      "top" : "input.17",
      "type" : "concat",
      "name" : "input.17",
      "bottom" : "input.1,x1.1,x2.1,x3.1,x4.1"
    },
    {
      "pad_r" : 1,
      "fused_relu" : 0,
      "fused_tanh" : 0,
      "debug_info" : "104",
      "pad_fill_mode" : 0,
      "pad_b" : 1,
      "pad_l" : 1,
      "top" : "104",
      "blob_weights" : 23,
      "K" : 192,
      "blob_biases" : 21,
      "name" : "104",
      "has_batch_norm" : 0,
      "type" : "convolution",
      "n_groups" : 1,
      "pad_t" : 1,
      "has_biases" : 1,
      "C" : 64,
      "bottom" : "input.17",
      "weights" : {

      },
      "Nx" : 3,
      "pad_mode" : 0,
      "pad_value" : 0,
      "Ny" : 3,
      "n_parallel" : 1
    },
    {
      "bottom" : "104,input.1",
      "alpha" : 1,
      "operation" : 0,
      "weights" : {

      },
      "fused_relu" : 0,
      "debug_info" : "input.19",
      "top" : "input.19",
      "type" : "elementwise",
      "name" : "input.19",
      "beta" : 0
    },
    {
      "pad_r" : 1,
      "fused_relu" : 0,
      "fused_tanh" : 0,
      "debug_info" : "input.21",
      "pad_fill_mode" : 0,
      "pad_b" : 1,
      "pad_l" : 1,
      "top" : "input.21",
      "blob_weights" : 27,
      "K" : 64,
      "blob_biases" : 25,
      "name" : "input.21",
      "has_batch_norm" : 0,
      "type" : "convolution",
      "n_groups" : 1,
      "pad_t" : 1,
      "has_biases" : 1,
      "C" : 32,
      "bottom" : "input.19",
      "weights" : {

      },
      "Nx" : 3,
      "pad_mode" : 0,
      "pad_value" : 0,
      "Ny" : 3,
      "n_parallel" : 1
    },
    {
      "alpha" : 0.20000000298023224,
      "bottom" : "input.21",
      "weights" : {

      },
      "mode" : 2,
      "debug_info" : "x1.3",
      "top" : "x1.3",
      "type" : "activation",
      "name" : "x1.3"
    },
    {
      "weights" : {

      },
      "debug_info" : "input.23",
      "top" : "input.23",
      "type" : "concat",
      "name" : "input.23",
      "bottom" : "input.19,x1.3"
    },
    {
      "pad_r" : 1,
      "fused_relu" : 0,
      "fused_tanh" : 0,
      "debug_info" : "input.25",
      "pad_fill_mode" : 0,
      "pad_b" : 1,
      "pad_l" : 1,
      "top" : "input.25",
      "blob_weights" : 31,
      "K" : 96,
      "blob_biases" : 29,
      "name" : "input.25",
      "has_batch_norm" : 0,
      "type" : "convolution",
      "n_groups" : 1,
      "pad_t" : 1,
      "has_biases" : 1,
      "C" : 32,
      "bottom" : "input.23",
      "weights" : {

      },
      "Nx" : 3,
      "pad_mode" : 0,
      "pad_value" : 0,
      "Ny" : 3,
      "n_parallel" : 1
    },
    {
      "alpha" : 0.20000000298023224,
      "bottom" : "input.25",
      "weights" : {

      },
      "mode" : 2,
      "debug_info" : "x2.3",
      "top" : "x2.3",
      "type" : "activation",
      "name" : "x2.3"
    },
    {
      "weights" : {

      },
      "debug_info" : "input.27",
      "top" : "input.27",
      "type" : "concat",
      "name" : "input.27",
      "bottom" : "input.19,x1.3,x2.3"
    },
    {
      "pad_r" : 1,
      "fused_relu" : 0,
      "fused_tanh" : 0,
      "debug_info" : "input.29",
      "pad_fill_mode" : 0,
      "pad_b" : 1,
      "pad_l" : 1,
      "top" : "input.29",
      "blob_weights" : 35,
      "K" : 128,
      "blob_biases" : 33,
      "name" : "input.29",
      "has_batch_norm" : 0,
      "type" : "convolution",
      "n_groups" : 1,
      "pad_t" : 1,
      "has_biases" : 1,
      "C" : 32,
      "bottom" : "input.27",
      "weights" : {

      },
      "Nx" : 3,
      "pad_mode" : 0,
      "pad_value" : 0,
      "Ny" : 3,
      "n_parallel" : 1
    },
    {
      "alpha" : 0.20000000298023224,
      "bottom" : "input.29",
      "weights" : {

      },
      "mode" : 2,
      "debug_info" : "x3.3",
      "top" : "x3.3",
      "type" : "activation",
      "name" : "x3.3"
    },
    {
      "weights" : {

      },
      "debug_info" : "input.31",
      "top" : "input.31",
      "type" : "concat",
      "name" : "input.31",
      "bottom" : "input.19,x1.3,x2.3,x3.3"
    },
    {
      "pad_r" : 1,
      "fused_relu" : 0,
      "fused_tanh" : 0,
      "debug_info" : "input.33",
      "pad_fill_mode" : 0,
      "pad_b" : 1,
      "pad_l" : 1,
      "top" : "input.33",
      "blob_weights" : 39,
      "K" : 160,
      "blob_biases" : 37,
      "name" : "input.33",
      "has_batch_norm" : 0,
      "type" : "convolution",
      "n_groups" : 1,
      "pad_t" : 1,
      "has_biases" : 1,
      "C" : 32,
      "bottom" : "input.31",
      "weights" : {

      },
      "Nx" : 3,
      "pad_mode" : 0,
      "pad_value" : 0,
      "Ny" : 3,
      "n_parallel" : 1
    },
    {
      "alpha" : 0.20000000298023224,
      "bottom" : "input.33",
      "weights" : {

      },
      "mode" : 2,
      "debug_info" : "x4.3",
      "top" : "x4.3",
      "type" : "activation",
      "name" : "x4.3"
    },
    {
      "weights" : {

      },
      "debug_info" : "input.35",
      "top" : "input.35",
      "type" : "concat",
      "name" : "input.35",
      "bottom" : "input.19,x1.3,x2.3,x3.3,x4.3"
    },
    {
      "pad_r" : 1,
      "fused_relu" : 0,
      "fused_tanh" : 0,
      "debug_info" : "159",
      "pad_fill_mode" : 0,
      "pad_b" : 1,
      "pad_l" : 1,
      "top" : "159",
      "blob_weights" : 43,
      "K" : 192,
      "blob_biases" : 41,
      "name" : "159",
      "has_batch_norm" : 0,
      "type" : "convolution",
      "n_groups" : 1,
      "pad_t" : 1,
      "has_biases" : 1,
      "C" : 64,
      "bottom" : "input.35",
      "weights" : {

      },
      "Nx" : 3,
      "pad_mode" : 0,
      "pad_value" : 0,
      "Ny" : 3,
      "n_parallel" : 1
    },
    {
      "bottom" : "159,input.19",
      "alpha" : 1,
      "operation" : 0,
      "weights" : {

      },
      "fused_relu" : 0,
      "debug_info" : "input.37",
      "top" : "input.37",
      "type" : "elementwise",
      "name" : "input.37",
      "beta" : 0
    },
    {
      "pad_r" : 1,
      "fused_relu" : 0,
      "fused_tanh" : 0,
      "debug_info" : "input.39",
      "pad_fill_mode" : 0,
      "pad_b" : 1,
      "pad_l" : 1,
      "top" : "input.39",
      "blob_weights" : 47,
      "K" : 64,
      "blob_biases" : 45,
      "name" : "input.39",
      "has_batch_norm" : 0,
      "type" : "convolution",
      "n_groups" : 1,
      "pad_t" : 1,
      "has_biases" : 1,
      "C" : 32,
      "bottom" : "input.37",
      "weights" : {

      },
      "Nx" : 3,
      "pad_mode" : 0,
      "pad_value" : 0,
      "Ny" : 3,
      "n_parallel" : 1
    },
    {
      "alpha" : 0.20000000298023224,
      "bottom" : "input.39",
      "weights" : {

      },
      "mode" : 2,
      "debug_info" : "x1.5",
      "top" : "x1.5",
      "type" : "activation",
      "name" : "x1.5"
    },
    {
      "weights" : {

      },
      "debug_info" : "input.41",
      "top" : "input.41",
      "type" : "concat",
      "name" : "input.41",
      "bottom" : "input.37,x1.5"
    },
    {
      "pad_r" : 1,
      "fused_relu" : 0,
      "fused_tanh" : 0,
      "debug_info" : "input.43",
      "pad_fill_mode" : 0,
      "pad_b" : 1,
      "pad_l" : 1,
      "top" : "input.43",
      "blob_weights" : 51,
      "K" : 96,
      "blob_biases" : 49,
      "name" : "input.43",
      "has_batch_norm" : 0,
      "type" : "convolution",
      "n_groups" : 1,
      "pad_t" : 1,
      "has_biases" : 1,
      "C" : 32,
      "bottom" : "input.41",
      "weights" : {

      },
      "Nx" : 3,
      "pad_mode" : 0,
      "pad_value" : 0,
      "Ny" : 3,
      "n_parallel" : 1
    },
    {
      "alpha" : 0.20000000298023224,
      "bottom" : "input.43",
      "weights" : {

      },
      "mode" : 2,
      "debug_info" : "x2.5",
      "top" : "x2.5",
      "type" : "activation",
      "name" : "x2.5"
    },
    {
      "weights" : {

      },
      "debug_info" : "input.45",
      "top" : "input.45",
      "type" : "concat",
      "name" : "input.45",
      "bottom" : "input.37,x1.5,x2.5"
    },
    {
      "pad_r" : 1,
      "fused_relu" : 0,
      "fused_tanh" : 0,
      "debug_info" : "input.47",
      "pad_fill_mode" : 0,
      "pad_b" : 1,
      "pad_l" : 1,
      "top" : "input.47",
      "blob_weights" : 55,
      "K" : 128,
      "blob_biases" : 53,
      "name" : "input.47",
      "has_batch_norm" : 0,
      "type" : "convolution",
      "n_groups" : 1,
      "pad_t" : 1,
      "has_biases" : 1,
      "C" : 32,
      "bottom" : "input.45",
      "weights" : {

      },
      "Nx" : 3,
      "pad_mode" : 0,
      "pad_value" : 0,
      "Ny" : 3,
      "n_parallel" : 1
    },
    {
      "alpha" : 0.20000000298023224,
      "bottom" : "input.47",
      "weights" : {

      },
      "mode" : 2,
      "debug_info" : "x3.5",
      "top" : "x3.5",
      "type" : "activation",
      "name" : "x3.5"
    },
    {
      "weights" : {

      },
      "debug_info" : "input.49",
      "top" : "input.49",
      "type" : "concat",
      "name" : "input.49",
      "bottom" : "input.37,x1.5,x2.5,x3.5"
    },
    {
      "pad_r" : 1,
      "fused_relu" : 0,
      "fused_tanh" : 0,
      "debug_info" : "input.51",
      "pad_fill_mode" : 0,
      "pad_b" : 1,
      "pad_l" : 1,
      "top" : "input.51",
      "blob_weights" : 59,
      "K" : 160,
      "blob_biases" : 57,
      "name" : "input.51",
      "has_batch_norm" : 0,
      "type" : "convolution",
      "n_groups" : 1,
      "pad_t" : 1,
      "has_biases" : 1,
      "C" : 32,
      "bottom" : "input.49",
      "weights" : {

      },
      "Nx" : 3,
      "pad_mode" : 0,
      "pad_value" : 0,
      "Ny" : 3,
      "n_parallel" : 1
    },
    {
      "alpha" : 0.20000000298023224,
      "bottom" : "input.51",
      "weights" : {

      },
      "mode" : 2,
      "debug_info" : "x4.5",
      "top" : "x4.5",
      "type" : "activation",
      "name" : "x4.5"
    },
    {
      "weights" : {

      },
      "debug_info" : "input.53",
      "top" : "input.53",
      "type" : "concat",
      "name" : "input.53",
      "bottom" : "input.37,x1.5,x2.5,x3.5,x4.5"
    },
    {
      "pad_r" : 1,
      "fused_relu" : 0,
      "fused_tanh" : 0,
      "debug_info" : "214",
      "pad_fill_mode" : 0,
      "pad_b" : 1,
      "pad_l" : 1,
      "top" : "214",
      "blob_weights" : 63,
      "K" : 192,
      "blob_biases" : 61,
      "name" : "214",
      "has_batch_norm" : 0,
      "type" : "convolution",
      "n_groups" : 1,
      "pad_t" : 1,
      "has_biases" : 1,
      "C" : 64,
      "bottom" : "input.53",
      "weights" : {

      },
      "Nx" : 3,
      "pad_mode" : 0,
      "pad_value" : 0,
      "Ny" : 3,
      "n_parallel" : 1
    },
    {
      "bottom" : "214,input.37",
      "alpha" : 1,
      "operation" : 0,
      "weights" : {

      },
      "fused_relu" : 0,
      "debug_info" : "out.1",
      "top" : "out.1",
      "type" : "elementwise",
      "name" : "out.1",
      "beta" : 0
    },
    {
      "bottom" : "out.1",
      "alpha" : 0.20000000298023224,
      "operation" : 1,
      "weights" : {

      },
      "fused_relu" : 0,
      "debug_info" : "217",
      "top" : "217",
      "type" : "elementwise",
      "name" : "217",
      "beta" : 0
    },
    {
      "bottom" : "217,input.1",
      "alpha" : 1,
      "operation" : 0,
      "weights" : {

      },
      "fused_relu" : 0,
      "debug_info" : "input.55",
      "top" : "input.55",
      "type" : "elementwise",
      "name" : "input.55",
      "beta" : 0
    },
    {
      "pad_r" : 1,
      "fused_relu" : 0,
      "fused_tanh" : 0,
      "debug_info" : "input.57",
      "pad_fill_mode" : 0,
      "pad_b" : 1,
      "pad_l" : 1,
      "top" : "input.57",
      "blob_weights" : 67,
      "K" : 64,
      "blob_biases" : 65,
      "name" : "input.57",
      "has_batch_norm" : 0,
      "type" : "convolution",
      "n_groups" : 1,
      "pad_t" : 1,
      "has_biases" : 1,
      "C" : 32,
      "bottom" : "input.55",
      "weights" : {

      },
      "Nx" : 3,
      "pad_mode" : 0,
      "pad_value" : 0,
      "Ny" : 3,
      "n_parallel" : 1
    },
    {
      "alpha" : 0.20000000298023224,
      "bottom" : "input.57",
      "weights" : {

      },
      "mode" : 2,
      "debug_info" : "x1.7",
      "top" : "x1.7",
      "type" : "activation",
      "name" : "x1.7"
    },
    {
      "weights" : {

      },
      "debug_info" : "input.59",
      "top" : "input.59",
      "type" : "concat",
      "name" : "input.59",
      "bottom" : "input.55,x1.7"
    },
    {
      "pad_r" : 1,
      "fused_relu" : 0,
      "fused_tanh" : 0,
      "debug_info" : "input.61",
      "pad_fill_mode" : 0,
      "pad_b" : 1,
      "pad_l" : 1,
      "top" : "input.61",
      "blob_weights" : 71,
      "K" : 96,
      "blob_biases" : 69,
      "name" : "input.61",
      "has_batch_norm" : 0,
      "type" : "convolution",
      "n_groups" : 1,
      "pad_t" : 1,
      "has_biases" : 1,
      "C" : 32,
      "bottom" : "input.59",
      "weights" : {

      },
      "Nx" : 3,
      "pad_mode" : 0,
      "pad_value" : 0,
      "Ny" : 3,
      "n_parallel" : 1
    },
    {
      "alpha" : 0.20000000298023224,
      "bottom" : "input.61",
      "weights" : {

      },
      "mode" : 2,
      "debug_info" : "x2.7",
      "top" : "x2.7",
      "type" : "activation",
      "name" : "x2.7"
    },
    {
      "weights" : {

      },
      "debug_info" : "input.63",
      "top" : "input.63",
      "type" : "concat",
      "name" : "input.63",
      "bottom" : "input.55,x1.7,x2.7"
    },
    {
      "pad_r" : 1,
      "fused_relu" : 0,
      "fused_tanh" : 0,
      "debug_info" : "input.65",
      "pad_fill_mode" : 0,
      "pad_b" : 1,
      "pad_l" : 1,
      "top" : "input.65",
      "blob_weights" : 75,
      "K" : 128,
      "blob_biases" : 73,
      "name" : "input.65",
      "has_batch_norm" : 0,
      "type" : "convolution",
      "n_groups" : 1,
      "pad_t" : 1,
      "has_biases" : 1,
      "C" : 32,
      "bottom" : "input.63",
      "weights" : {

      },
      "Nx" : 3,
      "pad_mode" : 0,
      "pad_value" : 0,
      "Ny" : 3,
      "n_parallel" : 1
    },
    {
      "alpha" : 0.20000000298023224,
      "bottom" : "input.65",
      "weights" : {

      },
      "mode" : 2,
      "debug_info" : "x3.7",
      "top" : "x3.7",
      "type" : "activation",
      "name" : "x3.7"
    },
    {
      "weights" : {

      },
      "debug_info" : "input.67",
      "top" : "input.67",
      "type" : "concat",
      "name" : "input.67",
      "bottom" : "input.55,x1.7,x2.7,x3.7"
    },
    {
      "pad_r" : 1,
      "fused_relu" : 0,
      "fused_tanh" : 0,
      "debug_info" : "input.69",
      "pad_fill_mode" : 0,
      "pad_b" : 1,
      "pad_l" : 1,
      "top" : "input.69",
      "blob_weights" : 79,
      "K" : 160,
      "blob_biases" : 77,
      "name" : "input.69",
      "has_batch_norm" : 0,
      "type" : "convolution",
      "n_groups" : 1,
      "pad_t" : 1,
      "has_biases" : 1,
      "C" : 32,
      "bottom" : "input.67",
      "weights" : {

      },
      "Nx" : 3,
      "pad_mode" : 0,
      "pad_value" : 0,
      "Ny" : 3,
      "n_parallel" : 1
    },
    {
      "alpha" : 0.20000000298023224,
      "bottom" : "input.69",
      "weights" : {

      },
      "mode" : 2,
      "debug_info" : "x4.7",
      "top" : "x4.7",
      "type" : "activation",
      "name" : "x4.7"
    },
    {
      "weights" : {

      },
      "debug_info" : "input.71",
      "top" : "input.71",
      "type" : "concat",
      "name" : "input.71",
      "bottom" : "input.55,x1.7,x2.7,x3.7,x4.7"
    },
    {
      "pad_r" : 1,
      "fused_relu" : 0,
      "fused_tanh" : 0,
      "debug_info" : "275",
      "pad_fill_mode" : 0,
      "pad_b" : 1,
      "pad_l" : 1,
      "top" : "275",
      "blob_weights" : 83,
      "K" : 192,
      "blob_biases" : 81,
      "name" : "275",
      "has_batch_norm" : 0,
      "type" : "convolution",
      "n_groups" : 1,
      "pad_t" : 1,
      "has_biases" : 1,
      "C" : 64,
      "bottom" : "input.71",
      "weights" : {

      },
      "Nx" : 3,
      "pad_mode" : 0,
      "pad_value" : 0,
      "Ny" : 3,
      "n_parallel" : 1
    },
    {
      "bottom" : "275,input.55",
      "alpha" : 1,
      "operation" : 0,
      "weights" : {

      },
      "fused_relu" : 0,
      "debug_info" : "input.73",
      "top" : "input.73",
      "type" : "elementwise",
      "name" : "input.73",
      "beta" : 0
    },
    {
      "pad_r" : 1,
      "fused_relu" : 0,
      "fused_tanh" : 0,
      "debug_info" : "input.75",
      "pad_fill_mode" : 0,
      "pad_b" : 1,
      "pad_l" : 1,
      "top" : "input.75",
      "blob_weights" : 87,
      "K" : 64,
      "blob_biases" : 85,
      "name" : "input.75",
      "has_batch_norm" : 0,
      "type" : "convolution",
      "n_groups" : 1,
      "pad_t" : 1,
      "has_biases" : 1,
      "C" : 32,
      "bottom" : "input.73",
      "weights" : {

      },
      "Nx" : 3,
      "pad_mode" : 0,
      "pad_value" : 0,
      "Ny" : 3,
      "n_parallel" : 1
    },
    {
      "alpha" : 0.20000000298023224,
      "bottom" : "input.75",
      "weights" : {

      },
      "mode" : 2,
      "debug_info" : "x1.9",
      "top" : "x1.9",
      "type" : "activation",
      "name" : "x1.9"
    },
    {
      "weights" : {

      },
      "debug_info" : "input.77",
      "top" : "input.77",
      "type" : "concat",
      "name" : "input.77",
      "bottom" : "input.73,x1.9"
    },
    {
      "pad_r" : 1,
      "fused_relu" : 0,
      "fused_tanh" : 0,
      "debug_info" : "input.79",
      "pad_fill_mode" : 0,
      "pad_b" : 1,
      "pad_l" : 1,
      "top" : "input.79",
      "blob_weights" : 91,
      "K" : 96,
      "blob_biases" : 89,
      "name" : "input.79",
      "has_batch_norm" : 0,
      "type" : "convolution",
      "n_groups" : 1,
      "pad_t" : 1,
      "has_biases" : 1,
      "C" : 32,
      "bottom" : "input.77",
      "weights" : {

      },
      "Nx" : 3,
      "pad_mode" : 0,
      "pad_value" : 0,
      "Ny" : 3,
      "n_parallel" : 1
    },
    {
      "alpha" : 0.20000000298023224,
      "bottom" : "input.79",
      "weights" : {

      },
      "mode" : 2,
      "debug_info" : "x2.9",
      "top" : "x2.9",
      "type" : "activation",
      "name" : "x2.9"
    },
    {
      "weights" : {

      },
      "debug_info" : "input.81",
      "top" : "input.81",
      "type" : "concat",
      "name" : "input.81",
      "bottom" : "input.73,x1.9,x2.9"
    },
    {
      "pad_r" : 1,
      "fused_relu" : 0,
      "fused_tanh" : 0,
      "debug_info" : "input.83",
      "pad_fill_mode" : 0,
      "pad_b" : 1,
      "pad_l" : 1,
      "top" : "input.83",
      "blob_weights" : 95,
      "K" : 128,
      "blob_biases" : 93,
      "name" : "input.83",
      "has_batch_norm" : 0,
      "type" : "convolution",
      "n_groups" : 1,
      "pad_t" : 1,
      "has_biases" : 1,
      "C" : 32,
      "bottom" : "input.81",
      "weights" : {

      },
      "Nx" : 3,
      "pad_mode" : 0,
      "pad_value" : 0,
      "Ny" : 3,
      "n_parallel" : 1
    },
    {
      "alpha" : 0.20000000298023224,
      "bottom" : "input.83",
      "weights" : {

      },
      "mode" : 2,
      "debug_info" : "x3.9",
      "top" : "x3.9",
      "type" : "activation",
      "name" : "x3.9"
    },
    {
      "weights" : {

      },
      "debug_info" : "input.85",
      "top" : "input.85",
      "type" : "concat",
      "name" : "input.85",
      "bottom" : "input.73,x1.9,x2.9,x3.9"
    },
    {
      "pad_r" : 1,
      "fused_relu" : 0,
      "fused_tanh" : 0,
      "debug_info" : "input.87",
      "pad_fill_mode" : 0,
      "pad_b" : 1,
      "pad_l" : 1,
      "top" : "input.87",
      "blob_weights" : 99,
      "K" : 160,
      "blob_biases" : 97,
      "name" : "input.87",
      "has_batch_norm" : 0,
      "type" : "convolution",
      "n_groups" : 1,
      "pad_t" : 1,
      "has_biases" : 1,
      "C" : 32,
      "bottom" : "input.85",
      "weights" : {

      },
      "Nx" : 3,
      "pad_mode" : 0,
      "pad_value" : 0,
      "Ny" : 3,
      "n_parallel" : 1
    },
    {
      "alpha" : 0.20000000298023224,
      "bottom" : "input.87",
      "weights" : {

      },
      "mode" : 2,
      "debug_info" : "x4.9",
      "top" : "x4.9",
      "type" : "activation",
      "name" : "x4.9"
    },
    {
      "weights" : {

      },
      "debug_info" : "input.89",
      "top" : "input.89",
      "type" : "concat",
      "name" : "input.89",
      "bottom" : "input.73,x1.9,x2.9,x3.9,x4.9"
    },
    {
      "pad_r" : 1,
      "fused_relu" : 0,
      "fused_tanh" : 0,
      "debug_info" : "330",
      "pad_fill_mode" : 0,
      "pad_b" : 1,
      "pad_l" : 1,
      "top" : "330",
      "blob_weights" : 103,
      "K" : 192,
      "blob_biases" : 101,
      "name" : "330",
      "has_batch_norm" : 0,
      "type" : "convolution",
      "n_groups" : 1,
      "pad_t" : 1,
      "has_biases" : 1,
      "C" : 64,
      "bottom" : "input.89",
      "weights" : {

      },
      "Nx" : 3,
      "pad_mode" : 0,
      "pad_value" : 0,
      "Ny" : 3,
      "n_parallel" : 1
    },
    {
      "bottom" : "330,input.73",
      "alpha" : 1,
      "operation" : 0,
      "weights" : {

      },
      "fused_relu" : 0,
      "debug_info" : "input.91",
      "top" : "input.91",
      "type" : "elementwise",
      "name" : "input.91",
      "beta" : 0
    },
    {
      "pad_r" : 1,
      "fused_relu" : 0,
      "fused_tanh" : 0,
      "debug_info" : "input.93",
      "pad_fill_mode" : 0,
      "pad_b" : 1,
      "pad_l" : 1,
      "top" : "input.93",
      "blob_weights" : 107,
      "K" : 64,
      "blob_biases" : 105,
      "name" : "input.93",
      "has_batch_norm" : 0,
      "type" : "convolution",
      "n_groups" : 1,
      "pad_t" : 1,
      "has_biases" : 1,
      "C" : 32,
      "bottom" : "input.91",
      "weights" : {

      },
      "Nx" : 3,
      "pad_mode" : 0,
      "pad_value" : 0,
      "Ny" : 3,
      "n_parallel" : 1
    },
    {
      "alpha" : 0.20000000298023224,
      "bottom" : "input.93",
      "weights" : {

      },
      "mode" : 2,
      "debug_info" : "x1.11",
      "top" : "x1.11",
      "type" : "activation",
      "name" : "x1.11"
    },
    {
      "weights" : {

      },
      "debug_info" : "input.95",
      "top" : "input.95",
      "type" : "concat",
      "name" : "input.95",
      "bottom" : "input.91,x1.11"
    },
    {
      "pad_r" : 1,
      "fused_relu" : 0,
      "fused_tanh" : 0,
      "debug_info" : "input.97",
      "pad_fill_mode" : 0,
      "pad_b" : 1,
      "pad_l" : 1,
      "top" : "input.97",
      "blob_weights" : 111,
      "K" : 96,
      "blob_biases" : 109,
      "name" : "input.97",
      "has_batch_norm" : 0,
      "type" : "convolution",
      "n_groups" : 1,
      "pad_t" : 1,
      "has_biases" : 1,
      "C" : 32,
      "bottom" : "input.95",
      "weights" : {

      },
      "Nx" : 3,
      "pad_mode" : 0,
      "pad_value" : 0,
      "Ny" : 3,
      "n_parallel" : 1
    },
    {
      "alpha" : 0.20000000298023224,
      "bottom" : "input.97",
      "weights" : {

      },
      "mode" : 2,
      "debug_info" : "x2.11",
      "top" : "x2.11",
      "type" : "activation",
      "name" : "x2.11"
    },
    {
      "weights" : {

      },
      "debug_info" : "input.99",
      "top" : "input.99",
      "type" : "concat",
      "name" : "input.99",
      "bottom" : "input.91,x1.11,x2.11"
    },
    {
      "pad_r" : 1,
      "fused_relu" : 0,
      "fused_tanh" : 0,
      "debug_info" : "input.101",
      "pad_fill_mode" : 0,
      "pad_b" : 1,
      "pad_l" : 1,
      "top" : "input.101",
      "blob_weights" : 115,
      "K" : 128,
      "blob_biases" : 113,
      "name" : "input.101",
      "has_batch_norm" : 0,
      "type" : "convolution",
      "n_groups" : 1,
      "pad_t" : 1,
      "has_biases" : 1,
      "C" : 32,
      "bottom" : "input.99",
      "weights" : {

      },
      "Nx" : 3,
      "pad_mode" : 0,
      "pad_value" : 0,
      "Ny" : 3,
      "n_parallel" : 1
    },
    {
      "alpha" : 0.20000000298023224,
      "bottom" : "input.101",
      "weights" : {

      },
      "mode" : 2,
      "debug_info" : "x3.11",
      "top" : "x3.11",
      "type" : "activation",
      "name" : "x3.11"
    },
    {
      "weights" : {

      },
      "debug_info" : "input.103",
      "top" : "input.103",
      "type" : "concat",
      "name" : "input.103",
      "bottom" : "input.91,x1.11,x2.11,x3.11"
    },
    {
      "pad_r" : 1,
      "fused_relu" : 0,
      "fused_tanh" : 0,
      "debug_info" : "input.105",
      "pad_fill_mode" : 0,
      "pad_b" : 1,
      "pad_l" : 1,
      "top" : "input.105",
      "blob_weights" : 119,
      "K" : 160,
      "blob_biases" : 117,
      "name" : "input.105",
      "has_batch_norm" : 0,
      "type" : "convolution",
      "n_groups" : 1,
      "pad_t" : 1,
      "has_biases" : 1,
      "C" : 32,
      "bottom" : "input.103",
      "weights" : {

      },
      "Nx" : 3,
      "pad_mode" : 0,
      "pad_value" : 0,
      "Ny" : 3,
      "n_parallel" : 1
    },
    {
      "alpha" : 0.20000000298023224,
      "bottom" : "input.105",
      "weights" : {

      },
      "mode" : 2,
      "debug_info" : "x4.11",
      "top" : "x4.11",
      "type" : "activation",
      "name" : "x4.11"
    },
    {
      "weights" : {

      },
      "debug_info" : "input.107",
      "top" : "input.107",
      "type" : "concat",
      "name" : "input.107",
      "bottom" : "input.91,x1.11,x2.11,x3.11,x4.11"
    },
    {
      "pad_r" : 1,
      "fused_relu" : 0,
      "fused_tanh" : 0,
      "debug_info" : "385",
      "pad_fill_mode" : 0,
      "pad_b" : 1,
      "pad_l" : 1,
      "top" : "385",
      "blob_weights" : 123,
      "K" : 192,
      "blob_biases" : 121,
      "name" : "385",
      "has_batch_norm" : 0,
      "type" : "convolution",
      "n_groups" : 1,
      "pad_t" : 1,
      "has_biases" : 1,
      "C" : 64,
      "bottom" : "input.107",
      "weights" : {

      },
      "Nx" : 3,
      "pad_mode" : 0,
      "pad_value" : 0,
      "Ny" : 3,
      "n_parallel" : 1
    },
    {
      "bottom" : "385,input.91",
      "alpha" : 1,
      "operation" : 0,
      "weights" : {

      },
      "fused_relu" : 0,
      "debug_info" : "out.3",
      "top" : "out.3",
      "type" : "elementwise",
      "name" : "out.3",
      "beta" : 0
    },
    {
      "bottom" : "out.3",
      "alpha" : 0.20000000298023224,
      "operation" : 1,
      "weights" : {

      },
      "fused_relu" : 0,
      "debug_info" : "388",
      "top" : "388",
      "type" : "elementwise",
      "name" : "388",
      "beta" : 0
    },
    {
      "bottom" : "388,input.55",
      "alpha" : 1,
      "operation" : 0,
      "weights" : {

      },
      "fused_relu" : 0,
      "debug_info" : "input.109",
      "top" : "input.109",
      "type" : "elementwise",
      "name" : "input.109",
      "beta" : 0
    },
    {
      "pad_r" : 1,
      "fused_relu" : 0,
      "fused_tanh" : 0,
      "debug_info" : "input.111",
      "pad_fill_mode" : 0,
      "pad_b" : 1,
      "pad_l" : 1,
      "top" : "input.111",
      "blob_weights" : 127,
      "K" : 64,
      "blob_biases" : 125,
      "name" : "input.111",
      "has_batch_norm" : 0,
      "type" : "convolution",
      "n_groups" : 1,
      "pad_t" : 1,
      "has_biases" : 1,
      "C" : 32,
      "bottom" : "input.109",
      "weights" : {

      },
      "Nx" : 3,
      "pad_mode" : 0,
      "pad_value" : 0,
      "Ny" : 3,
      "n_parallel" : 1
    },
    {
      "alpha" : 0.20000000298023224,
      "bottom" : "input.111",
      "weights" : {

      },
      "mode" : 2,
      "debug_info" : "x1.13",
      "top" : "x1.13",
      "type" : "activation",
      "name" : "x1.13"
    },
    {
      "weights" : {

      },
      "debug_info" : "input.113",
      "top" : "input.113",
      "type" : "concat",
      "name" : "input.113",
      "bottom" : "input.109,x1.13"
    },
    {
      "pad_r" : 1,
      "fused_relu" : 0,
      "fused_tanh" : 0,
      "debug_info" : "input.115",
      "pad_fill_mode" : 0,
      "pad_b" : 1,
      "pad_l" : 1,
      "top" : "input.115",
      "blob_weights" : 131,
      "K" : 96,
      "blob_biases" : 129,
      "name" : "input.115",
      "has_batch_norm" : 0,
      "type" : "convolution",
      "n_groups" : 1,
      "pad_t" : 1,
      "has_biases" : 1,
      "C" : 32,
      "bottom" : "input.113",
      "weights" : {

      },
      "Nx" : 3,
      "pad_mode" : 0,
      "pad_value" : 0,
      "Ny" : 3,
      "n_parallel" : 1
    },
    {
      "alpha" : 0.20000000298023224,
      "bottom" : "input.115",
      "weights" : {

      },
      "mode" : 2,
      "debug_info" : "x2.13",
      "top" : "x2.13",
      "type" : "activation",
      "name" : "x2.13"
    },
    {
      "weights" : {

      },
      "debug_info" : "input.117",
      "top" : "input.117",
      "type" : "concat",
      "name" : "input.117",
      "bottom" : "input.109,x1.13,x2.13"
    },
    {
      "pad_r" : 1,
      "fused_relu" : 0,
      "fused_tanh" : 0,
      "debug_info" : "input.119",
      "pad_fill_mode" : 0,
      "pad_b" : 1,
      "pad_l" : 1,
      "top" : "input.119",
      "blob_weights" : 135,
      "K" : 128,
      "blob_biases" : 133,
      "name" : "input.119",
      "has_batch_norm" : 0,
      "type" : "convolution",
      "n_groups" : 1,
      "pad_t" : 1,
      "has_biases" : 1,
      "C" : 32,
      "bottom" : "input.117",
      "weights" : {

      },
      "Nx" : 3,
      "pad_mode" : 0,
      "pad_value" : 0,
      "Ny" : 3,
      "n_parallel" : 1
    },
    {
      "alpha" : 0.20000000298023224,
      "bottom" : "input.119",
      "weights" : {

      },
      "mode" : 2,
      "debug_info" : "x3.13",
      "top" : "x3.13",
      "type" : "activation",
      "name" : "x3.13"
    },
    {
      "weights" : {

      },
      "debug_info" : "input.121",
      "top" : "input.121",
      "type" : "concat",
      "name" : "input.121",
      "bottom" : "input.109,x1.13,x2.13,x3.13"
    },
    {
      "pad_r" : 1,
      "fused_relu" : 0,
      "fused_tanh" : 0,
      "debug_info" : "input.123",
      "pad_fill_mode" : 0,
      "pad_b" : 1,
      "pad_l" : 1,
      "top" : "input.123",
      "blob_weights" : 139,
      "K" : 160,
      "blob_biases" : 137,
      "name" : "input.123",
      "has_batch_norm" : 0,
      "type" : "convolution",
      "n_groups" : 1,
      "pad_t" : 1,
      "has_biases" : 1,
      "C" : 32,
      "bottom" : "input.121",
      "weights" : {

      },
      "Nx" : 3,
      "pad_mode" : 0,
      "pad_value" : 0,
      "Ny" : 3,
      "n_parallel" : 1
    },
    {
      "alpha" : 0.20000000298023224,
      "bottom" : "input.123",
      "weights" : {

      },
      "mode" : 2,
      "debug_info" : "x4.13",
      "top" : "x4.13",
      "type" : "activation",
      "name" : "x4.13"
    },
    {
      "weights" : {

      },
      "debug_info" : "input.125",
      "top" : "input.125",
      "type" : "concat",
      "name" : "input.125",
      "bottom" : "input.109,x1.13,x2.13,x3.13,x4.13"
    },
    {
      "pad_r" : 1,
      "fused_relu" : 0,
      "fused_tanh" : 0,
      "debug_info" : "446",
      "pad_fill_mode" : 0,
      "pad_b" : 1,
      "pad_l" : 1,
      "top" : "446",
      "blob_weights" : 143,
      "K" : 192,
      "blob_biases" : 141,
      "name" : "446",
      "has_batch_norm" : 0,
      "type" : "convolution",
      "n_groups" : 1,
      "pad_t" : 1,
      "has_biases" : 1,
      "C" : 64,
      "bottom" : "input.125",
      "weights" : {

      },
      "Nx" : 3,
      "pad_mode" : 0,
      "pad_value" : 0,
      "Ny" : 3,
      "n_parallel" : 1
    },
    {
      "bottom" : "446,input.109",
      "alpha" : 1,
      "operation" : 0,
      "weights" : {

      },
      "fused_relu" : 0,
      "debug_info" : "input.127",
      "top" : "input.127",
      "type" : "elementwise",
      "name" : "input.127",
      "beta" : 0
    },
    {
      "pad_r" : 1,
      "fused_relu" : 0,
      "fused_tanh" : 0,
      "debug_info" : "input.129",
      "pad_fill_mode" : 0,
      "pad_b" : 1,
      "pad_l" : 1,
      "top" : "input.129",
      "blob_weights" : 147,
      "K" : 64,
      "blob_biases" : 145,
      "name" : "input.129",
      "has_batch_norm" : 0,
      "type" : "convolution",
      "n_groups" : 1,
      "pad_t" : 1,
      "has_biases" : 1,
      "C" : 32,
      "bottom" : "input.127",
      "weights" : {

      },
      "Nx" : 3,
      "pad_mode" : 0,
      "pad_value" : 0,
      "Ny" : 3,
      "n_parallel" : 1
    },
    {
      "alpha" : 0.20000000298023224,
      "bottom" : "input.129",
      "weights" : {

      },
      "mode" : 2,
      "debug_info" : "x1.15",
      "top" : "x1.15",
      "type" : "activation",
      "name" : "x1.15"
    },
    {
      "weights" : {

      },
      "debug_info" : "input.131",
      "top" : "input.131",
      "type" : "concat",
      "name" : "input.131",
      "bottom" : "input.127,x1.15"
    },
    {
      "pad_r" : 1,
      "fused_relu" : 0,
      "fused_tanh" : 0,
      "debug_info" : "input.133",
      "pad_fill_mode" : 0,
      "pad_b" : 1,
      "pad_l" : 1,
      "top" : "input.133",
      "blob_weights" : 151,
      "K" : 96,
      "blob_biases" : 149,
      "name" : "input.133",
      "has_batch_norm" : 0,
      "type" : "convolution",
      "n_groups" : 1,
      "pad_t" : 1,
      "has_biases" : 1,
      "C" : 32,
      "bottom" : "input.131",
      "weights" : {

      },
      "Nx" : 3,
      "pad_mode" : 0,
      "pad_value" : 0,
      "Ny" : 3,
      "n_parallel" : 1
    },
    {
      "alpha" : 0.20000000298023224,
      "bottom" : "input.133",
      "weights" : {

      },
      "mode" : 2,
      "debug_info" : "x2.15",
      "top" : "x2.15",
      "type" : "activation",
      "name" : "x2.15"
    },
    {
      "weights" : {

      },
      "debug_info" : "input.135",
      "top" : "input.135",
      "type" : "concat",
      "name" : "input.135",
      "bottom" : "input.127,x1.15,x2.15"
    },
    {
      "pad_r" : 1,
      "fused_relu" : 0,
      "fused_tanh" : 0,
      "debug_info" : "input.137",
      "pad_fill_mode" : 0,
      "pad_b" : 1,
      "pad_l" : 1,
      "top" : "input.137",
      "blob_weights" : 155,
      "K" : 128,
      "blob_biases" : 153,
      "name" : "input.137",
      "has_batch_norm" : 0,
      "type" : "convolution",
      "n_groups" : 1,
      "pad_t" : 1,
      "has_biases" : 1,
      "C" : 32,
      "bottom" : "input.135",
      "weights" : {

      },
      "Nx" : 3,
      "pad_mode" : 0,
      "pad_value" : 0,
      "Ny" : 3,
      "n_parallel" : 1
    },
    {
      "alpha" : 0.20000000298023224,
      "bottom" : "input.137",
      "weights" : {

      },
      "mode" : 2,
      "debug_info" : "x3.15",
      "top" : "x3.15",
      "type" : "activation",
      "name" : "x3.15"
    },
    {
      "weights" : {

      },
      "debug_info" : "input.139",
      "top" : "input.139",
      "type" : "concat",
      "name" : "input.139",
      "bottom" : "input.127,x1.15,x2.15,x3.15"
    },
    {
      "pad_r" : 1,
      "fused_relu" : 0,
      "fused_tanh" : 0,
      "debug_info" : "input.141",
      "pad_fill_mode" : 0,
      "pad_b" : 1,
      "pad_l" : 1,
      "top" : "input.141",
      "blob_weights" : 159,
      "K" : 160,
      "blob_biases" : 157,
      "name" : "input.141",
      "has_batch_norm" : 0,
      "type" : "convolution",
      "n_groups" : 1,
      "pad_t" : 1,
      "has_biases" : 1,
      "C" : 32,
      "bottom" : "input.139",
      "weights" : {

      },
      "Nx" : 3,
      "pad_mode" : 0,
      "pad_value" : 0,
      "Ny" : 3,
      "n_parallel" : 1
    },
    {
      "alpha" : 0.20000000298023224,
      "bottom" : "input.141",
      "weights" : {

      },
      "mode" : 2,
      "debug_info" : "x4.15",
      "top" : "x4.15",
      "type" : "activation",
      "name" : "x4.15"
    },
    {
      "weights" : {

      },
      "debug_info" : "input.143",
      "top" : "input.143",
      "type" : "concat",
      "name" : "input.143",
      "bottom" : "input.127,x1.15,x2.15,x3.15,x4.15"
    },
    {
      "pad_r" : 1,
      "fused_relu" : 0,
      "fused_tanh" : 0,
      "debug_info" : "501",
      "pad_fill_mode" : 0,
      "pad_b" : 1,
      "pad_l" : 1,
      "top" : "501",
      "blob_weights" : 163,
      "K" : 192,
      "blob_biases" : 161,
      "name" : "501",
      "has_batch_norm" : 0,
      "type" : "convolution",
      "n_groups" : 1,
      "pad_t" : 1,
      "has_biases" : 1,
      "C" : 64,
      "bottom" : "input.143",
      "weights" : {

      },
      "Nx" : 3,
      "pad_mode" : 0,
      "pad_value" : 0,
      "Ny" : 3,
      "n_parallel" : 1
    },
    {
      "bottom" : "501,input.127",
      "alpha" : 1,
      "operation" : 0,
      "weights" : {

      },
      "fused_relu" : 0,
      "debug_info" : "input.145",
      "top" : "input.145",
      "type" : "elementwise",
      "name" : "input.145",
      "beta" : 0
    },
    {
      "pad_r" : 1,
      "fused_relu" : 0,
      "fused_tanh" : 0,
      "debug_info" : "input.147",
      "pad_fill_mode" : 0,
      "pad_b" : 1,
      "pad_l" : 1,
      "top" : "input.147",
      "blob_weights" : 167,
      "K" : 64,
      "blob_biases" : 165,
      "name" : "input.147",
      "has_batch_norm" : 0,
      "type" : "convolution",
      "n_groups" : 1,
      "pad_t" : 1,
      "has_biases" : 1,
      "C" : 32,
      "bottom" : "input.145",
      "weights" : {

      },
      "Nx" : 3,
      "pad_mode" : 0,
      "pad_value" : 0,
      "Ny" : 3,
      "n_parallel" : 1
    },
    {
      "alpha" : 0.20000000298023224,
      "bottom" : "input.147",
      "weights" : {

      },
      "mode" : 2,
      "debug_info" : "x1.17",
      "top" : "x1.17",
      "type" : "activation",
      "name" : "x1.17"
    },
    {
      "weights" : {

      },
      "debug_info" : "input.149",
      "top" : "input.149",
      "type" : "concat",
      "name" : "input.149",
      "bottom" : "input.145,x1.17"
    },
    {
      "pad_r" : 1,
      "fused_relu" : 0,
      "fused_tanh" : 0,
      "debug_info" : "input.151",
      "pad_fill_mode" : 0,
      "pad_b" : 1,
      "pad_l" : 1,
      "top" : "input.151",
      "blob_weights" : 171,
      "K" : 96,
      "blob_biases" : 169,
      "name" : "input.151",
      "has_batch_norm" : 0,
      "type" : "convolution",
      "n_groups" : 1,
      "pad_t" : 1,
      "has_biases" : 1,
      "C" : 32,
      "bottom" : "input.149",
      "weights" : {

      },
      "Nx" : 3,
      "pad_mode" : 0,
      "pad_value" : 0,
      "Ny" : 3,
      "n_parallel" : 1
    },
    {
      "alpha" : 0.20000000298023224,
      "bottom" : "input.151",
      "weights" : {

      },
      "mode" : 2,
      "debug_info" : "x2.17",
      "top" : "x2.17",
      "type" : "activation",
      "name" : "x2.17"
    },
    {
      "weights" : {

      },
      "debug_info" : "input.153",
      "top" : "input.153",
      "type" : "concat",
      "name" : "input.153",
      "bottom" : "input.145,x1.17,x2.17"
    },
    {
      "pad_r" : 1,
      "fused_relu" : 0,
      "fused_tanh" : 0,
      "debug_info" : "input.155",
      "pad_fill_mode" : 0,
      "pad_b" : 1,
      "pad_l" : 1,
      "top" : "input.155",
      "blob_weights" : 175,
      "K" : 128,
      "blob_biases" : 173,
      "name" : "input.155",
      "has_batch_norm" : 0,
      "type" : "convolution",
      "n_groups" : 1,
      "pad_t" : 1,
      "has_biases" : 1,
      "C" : 32,
      "bottom" : "input.153",
      "weights" : {

      },
      "Nx" : 3,
      "pad_mode" : 0,
      "pad_value" : 0,
      "Ny" : 3,
      "n_parallel" : 1
    },
    {
      "alpha" : 0.20000000298023224,
      "bottom" : "input.155",
      "weights" : {

      },
      "mode" : 2,
      "debug_info" : "x3.17",
      "top" : "x3.17",
      "type" : "activation",
      "name" : "x3.17"
    },
    {
      "weights" : {

      },
      "debug_info" : "input.157",
      "top" : "input.157",
      "type" : "concat",
      "name" : "input.157",
      "bottom" : "input.145,x1.17,x2.17,x3.17"
    },
    {
      "pad_r" : 1,
      "fused_relu" : 0,
      "fused_tanh" : 0,
      "debug_info" : "input.159",
      "pad_fill_mode" : 0,
      "pad_b" : 1,
      "pad_l" : 1,
      "top" : "input.159",
      "blob_weights" : 179,
      "K" : 160,
      "blob_biases" : 177,
      "name" : "input.159",
      "has_batch_norm" : 0,
      "type" : "convolution",
      "n_groups" : 1,
      "pad_t" : 1,
      "has_biases" : 1,
      "C" : 32,
      "bottom" : "input.157",
      "weights" : {

      },
      "Nx" : 3,
      "pad_mode" : 0,
      "pad_value" : 0,
      "Ny" : 3,
      "n_parallel" : 1
    },
    {
      "alpha" : 0.20000000298023224,
      "bottom" : "input.159",
      "weights" : {

      },
      "mode" : 2,
      "debug_info" : "x4.17",
      "top" : "x4.17",
      "type" : "activation",
      "name" : "x4.17"
    },
    {
      "weights" : {

      },
      "debug_info" : "input.161",
      "top" : "input.161",
      "type" : "concat",
      "name" : "input.161",
      "bottom" : "input.145,x1.17,x2.17,x3.17,x4.17"
    },
    {
      "pad_r" : 1,
      "fused_relu" : 0,
      "fused_tanh" : 0,
      "debug_info" : "556",
      "pad_fill_mode" : 0,
      "pad_b" : 1,
      "pad_l" : 1,
      "top" : "556",
      "blob_weights" : 183,
      "K" : 192,
      "blob_biases" : 181,
      "name" : "556",
      "has_batch_norm" : 0,
      "type" : "convolution",
      "n_groups" : 1,
      "pad_t" : 1,
      "has_biases" : 1,
      "C" : 64,
      "bottom" : "input.161",
      "weights" : {

      },
      "Nx" : 3,
      "pad_mode" : 0,
      "pad_value" : 0,
      "Ny" : 3,
      "n_parallel" : 1
    },
    {
      "bottom" : "556,input.145",
      "alpha" : 1,
      "operation" : 0,
      "weights" : {

      },
      "fused_relu" : 0,
      "debug_info" : "out.5",
      "top" : "out.5",
      "type" : "elementwise",
      "name" : "out.5",
      "beta" : 0
    },
    {
      "bottom" : "out.5",
      "alpha" : 0.20000000298023224,
      "operation" : 1,
      "weights" : {

      },
      "fused_relu" : 0,
      "debug_info" : "559",
      "top" : "559",
      "type" : "elementwise",
      "name" : "559",
      "beta" : 0
    },
    {
      "bottom" : "559,input.109",
      "alpha" : 1,
      "operation" : 0,
      "weights" : {

      },
      "fused_relu" : 0,
      "debug_info" : "input.163",
      "top" : "input.163",
      "type" : "elementwise",
      "name" : "input.163",
      "beta" : 0
    },
    {
      "pad_r" : 1,
      "fused_relu" : 0,
      "fused_tanh" : 0,
      "debug_info" : "input.165",
      "pad_fill_mode" : 0,
      "pad_b" : 1,
      "pad_l" : 1,
      "top" : "input.165",
      "blob_weights" : 187,
      "K" : 64,
      "blob_biases" : 185,
      "name" : "input.165",
      "has_batch_norm" : 0,
      "type" : "convolution",
      "n_groups" : 1,
      "pad_t" : 1,
      "has_biases" : 1,
      "C" : 32,
      "bottom" : "input.163",
      "weights" : {

      },
      "Nx" : 3,
      "pad_mode" : 0,
      "pad_value" : 0,
      "Ny" : 3,
      "n_parallel" : 1
    },
    {
      "alpha" : 0.20000000298023224,
      "bottom" : "input.165",
      "weights" : {

      },
      "mode" : 2,
      "debug_info" : "x1.19",
      "top" : "x1.19",
      "type" : "activation",
      "name" : "x1.19"
    },
    {
      "weights" : {

      },
      "debug_info" : "input.167",
      "top" : "input.167",
      "type" : "concat",
      "name" : "input.167",
      "bottom" : "input.163,x1.19"
    },
    {
      "pad_r" : 1,
      "fused_relu" : 0,
      "fused_tanh" : 0,
      "debug_info" : "input.169",
      "pad_fill_mode" : 0,
      "pad_b" : 1,
      "pad_l" : 1,
      "top" : "input.169",
      "blob_weights" : 191,
      "K" : 96,
      "blob_biases" : 189,
      "name" : "input.169",
      "has_batch_norm" : 0,
      "type" : "convolution",
      "n_groups" : 1,
      "pad_t" : 1,
      "has_biases" : 1,
      "C" : 32,
      "bottom" : "input.167",
      "weights" : {

      },
      "Nx" : 3,
      "pad_mode" : 0,
      "pad_value" : 0,
      "Ny" : 3,
      "n_parallel" : 1
    },
    {
      "alpha" : 0.20000000298023224,
      "bottom" : "input.169",
      "weights" : {

      },
      "mode" : 2,
      "debug_info" : "x2.19",
      "top" : "x2.19",
      "type" : "activation",
      "name" : "x2.19"
    },
    {
      "weights" : {

      },
      "debug_info" : "input.171",
      "top" : "input.171",
      "type" : "concat",
      "name" : "input.171",
      "bottom" : "input.163,x1.19,x2.19"
    },
    {
      "pad_r" : 1,
      "fused_relu" : 0,
      "fused_tanh" : 0,
      "debug_info" : "input.173",
      "pad_fill_mode" : 0,
      "pad_b" : 1,
      "pad_l" : 1,
      "top" : "input.173",
      "blob_weights" : 195,
      "K" : 128,
      "blob_biases" : 193,
      "name" : "input.173",
      "has_batch_norm" : 0,
      "type" : "convolution",
      "n_groups" : 1,
      "pad_t" : 1,
      "has_biases" : 1,
      "C" : 32,
      "bottom" : "input.171",
      "weights" : {

      },
      "Nx" : 3,
      "pad_mode" : 0,
      "pad_value" : 0,
      "Ny" : 3,
      "n_parallel" : 1
    },
    {
      "alpha" : 0.20000000298023224,
      "bottom" : "input.173",
      "weights" : {

      },
      "mode" : 2,
      "debug_info" : "x3.19",
      "top" : "x3.19",
      "type" : "activation",
      "name" : "x3.19"
    },
    {
      "weights" : {

      },
      "debug_info" : "input.175",
      "top" : "input.175",
      "type" : "concat",
      "name" : "input.175",
      "bottom" : "input.163,x1.19,x2.19,x3.19"
    },
    {
      "pad_r" : 1,
      "fused_relu" : 0,
      "fused_tanh" : 0,
      "debug_info" : "input.177",
      "pad_fill_mode" : 0,
      "pad_b" : 1,
      "pad_l" : 1,
      "top" : "input.177",
      "blob_weights" : 199,
      "K" : 160,
      "blob_biases" : 197,
      "name" : "input.177",
      "has_batch_norm" : 0,
      "type" : "convolution",
      "n_groups" : 1,
      "pad_t" : 1,
      "has_biases" : 1,
      "C" : 32,
      "bottom" : "input.175",
      "weights" : {

      },
      "Nx" : 3,
      "pad_mode" : 0,
      "pad_value" : 0,
      "Ny" : 3,
      "n_parallel" : 1
    },
    {
      "alpha" : 0.20000000298023224,
      "bottom" : "input.177",
      "weights" : {

      },
      "mode" : 2,
      "debug_info" : "x4.19",
      "top" : "x4.19",
      "type" : "activation",
      "name" : "x4.19"
    },
    {
      "weights" : {

      },
      "debug_info" : "input.179",
      "top" : "input.179",
      "type" : "concat",
      "name" : "input.179",
      "bottom" : "input.163,x1.19,x2.19,x3.19,x4.19"
    },
    {
      "pad_r" : 1,
      "fused_relu" : 0,
      "fused_tanh" : 0,
      "debug_info" : "617",
      "pad_fill_mode" : 0,
      "pad_b" : 1,
      "pad_l" : 1,
      "top" : "617",
      "blob_weights" : 203,
      "K" : 192,
      "blob_biases" : 201,
      "name" : "617",
      "has_batch_norm" : 0,
      "type" : "convolution",
      "n_groups" : 1,
      "pad_t" : 1,
      "has_biases" : 1,
      "C" : 64,
      "bottom" : "input.179",
      "weights" : {

      },
      "Nx" : 3,
      "pad_mode" : 0,
      "pad_value" : 0,
      "Ny" : 3,
      "n_parallel" : 1
    },
    {
      "bottom" : "617,input.163",
      "alpha" : 1,
      "operation" : 0,
      "weights" : {

      },
      "fused_relu" : 0,
      "debug_info" : "input.181",
      "top" : "input.181",
      "type" : "elementwise",
      "name" : "input.181",
      "beta" : 0
    },
    {
      "pad_r" : 1,
      "fused_relu" : 0,
      "fused_tanh" : 0,
      "debug_info" : "input.183",
      "pad_fill_mode" : 0,
      "pad_b" : 1,
      "pad_l" : 1,
      "top" : "input.183",
      "blob_weights" : 207,
      "K" : 64,
      "blob_biases" : 205,
      "name" : "input.183",
      "has_batch_norm" : 0,
      "type" : "convolution",
      "n_groups" : 1,
      "pad_t" : 1,
      "has_biases" : 1,
      "C" : 32,
      "bottom" : "input.181",
      "weights" : {

      },
      "Nx" : 3,
      "pad_mode" : 0,
      "pad_value" : 0,
      "Ny" : 3,
      "n_parallel" : 1
    },
    {
      "alpha" : 0.20000000298023224,
      "bottom" : "input.183",
      "weights" : {

      },
      "mode" : 2,
      "debug_info" : "x1.21",
      "top" : "x1.21",
      "type" : "activation",
      "name" : "x1.21"
    },
    {
      "weights" : {

      },
      "debug_info" : "input.185",
      "top" : "input.185",
      "type" : "concat",
      "name" : "input.185",
      "bottom" : "input.181,x1.21"
    },
    {
      "pad_r" : 1,
      "fused_relu" : 0,
      "fused_tanh" : 0,
      "debug_info" : "input.187",
      "pad_fill_mode" : 0,
      "pad_b" : 1,
      "pad_l" : 1,
      "top" : "input.187",
      "blob_weights" : 211,
      "K" : 96,
      "blob_biases" : 209,
      "name" : "input.187",
      "has_batch_norm" : 0,
      "type" : "convolution",
      "n_groups" : 1,
      "pad_t" : 1,
      "has_biases" : 1,
      "C" : 32,
      "bottom" : "input.185",
      "weights" : {

      },
      "Nx" : 3,
      "pad_mode" : 0,
      "pad_value" : 0,
      "Ny" : 3,
      "n_parallel" : 1
    },
    {
      "alpha" : 0.20000000298023224,
      "bottom" : "input.187",
      "weights" : {

      },
      "mode" : 2,
      "debug_info" : "x2.21",
      "top" : "x2.21",
      "type" : "activation",
      "name" : "x2.21"
    },
    {
      "weights" : {

      },
      "debug_info" : "input.189",
      "top" : "input.189",
      "type" : "concat",
      "name" : "input.189",
      "bottom" : "input.181,x1.21,x2.21"
    },
    {
      "pad_r" : 1,
      "fused_relu" : 0,
      "fused_tanh" : 0,
      "debug_info" : "input.191",
      "pad_fill_mode" : 0,
      "pad_b" : 1,
      "pad_l" : 1,
      "top" : "input.191",
      "blob_weights" : 215,
      "K" : 128,
      "blob_biases" : 213,
      "name" : "input.191",
      "has_batch_norm" : 0,
      "type" : "convolution",
      "n_groups" : 1,
      "pad_t" : 1,
      "has_biases" : 1,
      "C" : 32,
      "bottom" : "input.189",
      "weights" : {

      },
      "Nx" : 3,
      "pad_mode" : 0,
      "pad_value" : 0,
      "Ny" : 3,
      "n_parallel" : 1
    },
    {
      "alpha" : 0.20000000298023224,
      "bottom" : "input.191",
      "weights" : {

      },
      "mode" : 2,
      "debug_info" : "x3.21",
      "top" : "x3.21",
      "type" : "activation",
      "name" : "x3.21"
    },
    {
      "weights" : {

      },
      "debug_info" : "input.193",
      "top" : "input.193",
      "type" : "concat",
      "name" : "input.193",
      "bottom" : "input.181,x1.21,x2.21,x3.21"
    },
    {
      "pad_r" : 1,
      "fused_relu" : 0,
      "fused_tanh" : 0,
      "debug_info" : "input.195",
      "pad_fill_mode" : 0,
      "pad_b" : 1,
      "pad_l" : 1,
      "top" : "input.195",
      "blob_weights" : 219,
      "K" : 160,
      "blob_biases" : 217,
      "name" : "input.195",
      "has_batch_norm" : 0,
      "type" : "convolution",
      "n_groups" : 1,
      "pad_t" : 1,
      "has_biases" : 1,
      "C" : 32,
      "bottom" : "input.193",
      "weights" : {

      },
      "Nx" : 3,
      "pad_mode" : 0,
      "pad_value" : 0,
      "Ny" : 3,
      "n_parallel" : 1
    },
    {
      "alpha" : 0.20000000298023224,
      "bottom" : "input.195",
      "weights" : {

      },
      "mode" : 2,
      "debug_info" : "x4.21",
      "top" : "x4.21",
      "type" : "activation",
      "name" : "x4.21"
    },
    {
      "weights" : {

      },
      "debug_info" : "input.197",
      "top" : "input.197",
      "type" : "concat",
      "name" : "input.197",
      "bottom" : "input.181,x1.21,x2.21,x3.21,x4.21"
    },
    {
      "pad_r" : 1,
      "fused_relu" : 0,
      "fused_tanh" : 0,
      "debug_info" : "672",
      "pad_fill_mode" : 0,
      "pad_b" : 1,
      "pad_l" : 1,
      "top" : "672",
      "blob_weights" : 223,
      "K" : 192,
      "blob_biases" : 221,
      "name" : "672",
      "has_batch_norm" : 0,
      "type" : "convolution",
      "n_groups" : 1,
      "pad_t" : 1,
      "has_biases" : 1,
      "C" : 64,
      "bottom" : "input.197",
      "weights" : {

      },
      "Nx" : 3,
      "pad_mode" : 0,
      "pad_value" : 0,
      "Ny" : 3,
      "n_parallel" : 1
    },
    {
      "bottom" : "672,input.181",
      "alpha" : 1,
      "operation" : 0,
      "weights" : {

      },
      "fused_relu" : 0,
      "debug_info" : "input.199",
      "top" : "input.199",
      "type" : "elementwise",
      "name" : "input.199",
      "beta" : 0
    },
    {
      "pad_r" : 1,
      "fused_relu" : 0,
      "fused_tanh" : 0,
      "debug_info" : "input.201",
      "pad_fill_mode" : 0,
      "pad_b" : 1,
      "pad_l" : 1,
      "top" : "input.201",
      "blob_weights" : 227,
      "K" : 64,
      "blob_biases" : 225,
      "name" : "input.201",
      "has_batch_norm" : 0,
      "type" : "convolution",
      "n_groups" : 1,
      "pad_t" : 1,
      "has_biases" : 1,
      "C" : 32,
      "bottom" : "input.199",
      "weights" : {

      },
      "Nx" : 3,
      "pad_mode" : 0,
      "pad_value" : 0,
      "Ny" : 3,
      "n_parallel" : 1
    },
    {
      "alpha" : 0.20000000298023224,
      "bottom" : "input.201",
      "weights" : {

      },
      "mode" : 2,
      "debug_info" : "x1.23",
      "top" : "x1.23",
      "type" : "activation",
      "name" : "x1.23"
    },
    {
      "weights" : {

      },
      "debug_info" : "input.203",
      "top" : "input.203",
      "type" : "concat",
      "name" : "input.203",
      "bottom" : "input.199,x1.23"
    },
    {
      "pad_r" : 1,
      "fused_relu" : 0,
      "fused_tanh" : 0,
      "debug_info" : "input.205",
      "pad_fill_mode" : 0,
      "pad_b" : 1,
      "pad_l" : 1,
      "top" : "input.205",
      "blob_weights" : 231,
      "K" : 96,
      "blob_biases" : 229,
      "name" : "input.205",
      "has_batch_norm" : 0,
      "type" : "convolution",
      "n_groups" : 1,
      "pad_t" : 1,
      "has_biases" : 1,
      "C" : 32,
      "bottom" : "input.203",
      "weights" : {

      },
      "Nx" : 3,
      "pad_mode" : 0,
      "pad_value" : 0,
      "Ny" : 3,
      "n_parallel" : 1
    },
    {
      "alpha" : 0.20000000298023224,
      "bottom" : "input.205",
      "weights" : {

      },
      "mode" : 2,
      "debug_info" : "x2.23",
      "top" : "x2.23",
      "type" : "activation",
      "name" : "x2.23"
    },
    {
      "weights" : {

      },
      "debug_info" : "input.207",
      "top" : "input.207",
      "type" : "concat",
      "name" : "input.207",
      "bottom" : "input.199,x1.23,x2.23"
    },
    {
      "pad_r" : 1,
      "fused_relu" : 0,
      "fused_tanh" : 0,
      "debug_info" : "input.209",
      "pad_fill_mode" : 0,
      "pad_b" : 1,
      "pad_l" : 1,
      "top" : "input.209",
      "blob_weights" : 235,
      "K" : 128,
      "blob_biases" : 233,
      "name" : "input.209",
      "has_batch_norm" : 0,
      "type" : "convolution",
      "n_groups" : 1,
      "pad_t" : 1,
      "has_biases" : 1,
      "C" : 32,
      "bottom" : "input.207",
      "weights" : {

      },
      "Nx" : 3,
      "pad_mode" : 0,
      "pad_value" : 0,
      "Ny" : 3,
      "n_parallel" : 1
    },
    {
      "alpha" : 0.20000000298023224,
      "bottom" : "input.209",
      "weights" : {

      },
      "mode" : 2,
      "debug_info" : "x3.23",
      "top" : "x3.23",
      "type" : "activation",
      "name" : "x3.23"
    },
    {
      "weights" : {

      },
      "debug_info" : "input.211",
      "top" : "input.211",
      "type" : "concat",
      "name" : "input.211",
      "bottom" : "input.199,x1.23,x2.23,x3.23"
    },
    {
      "pad_r" : 1,
      "fused_relu" : 0,
      "fused_tanh" : 0,
      "debug_info" : "input.213",
      "pad_fill_mode" : 0,
      "pad_b" : 1,
      "pad_l" : 1,
      "top" : "input.213",
      "blob_weights" : 239,
      "K" : 160,
      "blob_biases" : 237,
      "name" : "input.213",
      "has_batch_norm" : 0,
      "type" : "convolution",
      "n_groups" : 1,
      "pad_t" : 1,
      "has_biases" : 1,
      "C" : 32,
      "bottom" : "input.211",
      "weights" : {

      },
      "Nx" : 3,
      "pad_mode" : 0,
      "pad_value" : 0,
      "Ny" : 3,
      "n_parallel" : 1
    },
    {
      "alpha" : 0.20000000298023224,
      "bottom" : "input.213",
      "weights" : {

      },
      "mode" : 2,
      "debug_info" : "x4.23",
      "top" : "x4.23",
      "type" : "activation",
      "name" : "x4.23"
    },
    {
      "weights" : {

      },
      "debug_info" : "input.215",
      "top" : "input.215",
      "type" : "concat",
      "name" : "input.215",
      "bottom" : "input.199,x1.23,x2.23,x3.23,x4.23"
    },
    {
      "pad_r" : 1,
      "fused_relu" : 0,
      "fused_tanh" : 0,
      "debug_info" : "727",
      "pad_fill_mode" : 0,
      "pad_b" : 1,
      "pad_l" : 1,
      "top" : "727",
      "blob_weights" : 243,
      "K" : 192,
      "blob_biases" : 241,
      "name" : "727",
      "has_batch_norm" : 0,
      "type" : "convolution",
      "n_groups" : 1,
      "pad_t" : 1,
      "has_biases" : 1,
      "C" : 64,
      "bottom" : "input.215",
      "weights" : {

      },
      "Nx" : 3,
      "pad_mode" : 0,
      "pad_value" : 0,
      "Ny" : 3,
      "n_parallel" : 1
    },
    {
      "bottom" : "727,input.199",
      "alpha" : 1,
      "operation" : 0,
      "weights" : {

      },
      "fused_relu" : 0,
      "debug_info" : "out.7",
      "top" : "out.7",
      "type" : "elementwise",
      "name" : "out.7",
      "beta" : 0
    },
    {
      "bottom" : "out.7",
      "alpha" : 0.20000000298023224,
      "operation" : 1,
      "weights" : {

      },
      "fused_relu" : 0,
      "debug_info" : "730",
      "top" : "730",
      "type" : "elementwise",
      "name" : "730",
      "beta" : 0
    },
    {
      "bottom" : "730,input.163",
      "alpha" : 1,
      "operation" : 0,
      "weights" : {

      },
      "fused_relu" : 0,
      "debug_info" : "input.217",
      "top" : "input.217",
      "type" : "elementwise",
      "name" : "input.217",
      "beta" : 0
    },
    {
      "pad_r" : 1,
      "fused_relu" : 0,
      "fused_tanh" : 0,
      "debug_info" : "input.219",
      "pad_fill_mode" : 0,
      "pad_b" : 1,
      "pad_l" : 1,
      "top" : "input.219",
      "blob_weights" : 247,
      "K" : 64,
      "blob_biases" : 245,
      "name" : "input.219",
      "has_batch_norm" : 0,
      "type" : "convolution",
      "n_groups" : 1,
      "pad_t" : 1,
      "has_biases" : 1,
      "C" : 32,
      "bottom" : "input.217",
      "weights" : {

      },
      "Nx" : 3,
      "pad_mode" : 0,
      "pad_value" : 0,
      "Ny" : 3,
      "n_parallel" : 1
    },
    {
      "alpha" : 0.20000000298023224,
      "bottom" : "input.219",
      "weights" : {

      },
      "mode" : 2,
      "debug_info" : "x1.25",
      "top" : "x1.25",
      "type" : "activation",
      "name" : "x1.25"
    },
    {
      "weights" : {

      },
      "debug_info" : "input.221",
      "top" : "input.221",
      "type" : "concat",
      "name" : "input.221",
      "bottom" : "input.217,x1.25"
    },
    {
      "pad_r" : 1,
      "fused_relu" : 0,
      "fused_tanh" : 0,
      "debug_info" : "input.223",
      "pad_fill_mode" : 0,
      "pad_b" : 1,
      "pad_l" : 1,
      "top" : "input.223",
      "blob_weights" : 251,
      "K" : 96,
      "blob_biases" : 249,
      "name" : "input.223",
      "has_batch_norm" : 0,
      "type" : "convolution",
      "n_groups" : 1,
      "pad_t" : 1,
      "has_biases" : 1,
      "C" : 32,
      "bottom" : "input.221",
      "weights" : {

      },
      "Nx" : 3,
      "pad_mode" : 0,
      "pad_value" : 0,
      "Ny" : 3,
      "n_parallel" : 1
    },
    {
      "alpha" : 0.20000000298023224,
      "bottom" : "input.223",
      "weights" : {

      },
      "mode" : 2,
      "debug_info" : "x2.25",
      "top" : "x2.25",
      "type" : "activation",
      "name" : "x2.25"
    },
    {
      "weights" : {

      },
      "debug_info" : "input.225",
      "top" : "input.225",
      "type" : "concat",
      "name" : "input.225",
      "bottom" : "input.217,x1.25,x2.25"
    },
    {
      "pad_r" : 1,
      "fused_relu" : 0,
      "fused_tanh" : 0,
      "debug_info" : "input.227",
      "pad_fill_mode" : 0,
      "pad_b" : 1,
      "pad_l" : 1,
      "top" : "input.227",
      "blob_weights" : 255,
      "K" : 128,
      "blob_biases" : 253,
      "name" : "input.227",
      "has_batch_norm" : 0,
      "type" : "convolution",
      "n_groups" : 1,
      "pad_t" : 1,
      "has_biases" : 1,
      "C" : 32,
      "bottom" : "input.225",
      "weights" : {

      },
      "Nx" : 3,
      "pad_mode" : 0,
      "pad_value" : 0,
      "Ny" : 3,
      "n_parallel" : 1
    },
    {
      "alpha" : 0.20000000298023224,
      "bottom" : "input.227",
      "weights" : {

      },
      "mode" : 2,
      "debug_info" : "x3.25",
      "top" : "x3.25",
      "type" : "activation",
      "name" : "x3.25"
    },
    {
      "weights" : {

      },
      "debug_info" : "input.229",
      "top" : "input.229",
      "type" : "concat",
      "name" : "input.229",
      "bottom" : "input.217,x1.25,x2.25,x3.25"
    },
    {
      "pad_r" : 1,
      "fused_relu" : 0,
      "fused_tanh" : 0,
      "debug_info" : "input.231",
      "pad_fill_mode" : 0,
      "pad_b" : 1,
      "pad_l" : 1,
      "top" : "input.231",
      "blob_weights" : 259,
      "K" : 160,
      "blob_biases" : 257,
      "name" : "input.231",
      "has_batch_norm" : 0,
      "type" : "convolution",
      "n_groups" : 1,
      "pad_t" : 1,
      "has_biases" : 1,
      "C" : 32,
      "bottom" : "input.229",
      "weights" : {

      },
      "Nx" : 3,
      "pad_mode" : 0,
      "pad_value" : 0,
      "Ny" : 3,
      "n_parallel" : 1
    },
    {
      "alpha" : 0.20000000298023224,
      "bottom" : "input.231",
      "weights" : {

      },
      "mode" : 2,
      "debug_info" : "x4.25",
      "top" : "x4.25",
      "type" : "activation",
      "name" : "x4.25"
    },
    {
      "weights" : {

      },
      "debug_info" : "input.233",
      "top" : "input.233",
      "type" : "concat",
      "name" : "input.233",
      "bottom" : "input.217,x1.25,x2.25,x3.25,x4.25"
    },
    {
      "pad_r" : 1,
      "fused_relu" : 0,
      "fused_tanh" : 0,
      "debug_info" : "788",
      "pad_fill_mode" : 0,
      "pad_b" : 1,
      "pad_l" : 1,
      "top" : "788",
      "blob_weights" : 263,
      "K" : 192,
      "blob_biases" : 261,
      "name" : "788",
      "has_batch_norm" : 0,
      "type" : "convolution",
      "n_groups" : 1,
      "pad_t" : 1,
      "has_biases" : 1,
      "C" : 64,
      "bottom" : "input.233",
      "weights" : {

      },
      "Nx" : 3,
      "pad_mode" : 0,
      "pad_value" : 0,
      "Ny" : 3,
      "n_parallel" : 1
    },
    {
      "bottom" : "788,input.217",
      "alpha" : 1,
      "operation" : 0,
      "weights" : {

      },
      "fused_relu" : 0,
      "debug_info" : "input.235",
      "top" : "input.235",
      "type" : "elementwise",
      "name" : "input.235",
      "beta" : 0
    },
    {
      "pad_r" : 1,
      "fused_relu" : 0,
      "fused_tanh" : 0,
      "debug_info" : "input.237",
      "pad_fill_mode" : 0,
      "pad_b" : 1,
      "pad_l" : 1,
      "top" : "input.237",
      "blob_weights" : 267,
      "K" : 64,
      "blob_biases" : 265,
      "name" : "input.237",
      "has_batch_norm" : 0,
      "type" : "convolution",
      "n_groups" : 1,
      "pad_t" : 1,
      "has_biases" : 1,
      "C" : 32,
      "bottom" : "input.235",
      "weights" : {

      },
      "Nx" : 3,
      "pad_mode" : 0,
      "pad_value" : 0,
      "Ny" : 3,
      "n_parallel" : 1
    },
    {
      "alpha" : 0.20000000298023224,
      "bottom" : "input.237",
      "weights" : {

      },
      "mode" : 2,
      "debug_info" : "x1.27",
      "top" : "x1.27",
      "type" : "activation",
      "name" : "x1.27"
    },
    {
      "weights" : {

      },
      "debug_info" : "input.239",
      "top" : "input.239",
      "type" : "concat",
      "name" : "input.239",
      "bottom" : "input.235,x1.27"
    },
    {
      "pad_r" : 1,
      "fused_relu" : 0,
      "fused_tanh" : 0,
      "debug_info" : "input.241",
      "pad_fill_mode" : 0,
      "pad_b" : 1,
      "pad_l" : 1,
      "top" : "input.241",
      "blob_weights" : 271,
      "K" : 96,
      "blob_biases" : 269,
      "name" : "input.241",
      "has_batch_norm" : 0,
      "type" : "convolution",
      "n_groups" : 1,
      "pad_t" : 1,
      "has_biases" : 1,
      "C" : 32,
      "bottom" : "input.239",
      "weights" : {

      },
      "Nx" : 3,
      "pad_mode" : 0,
      "pad_value" : 0,
      "Ny" : 3,
      "n_parallel" : 1
    },
    {
      "alpha" : 0.20000000298023224,
      "bottom" : "input.241",
      "weights" : {

      },
      "mode" : 2,
      "debug_info" : "x2.27",
      "top" : "x2.27",
      "type" : "activation",
      "name" : "x2.27"
    },
    {
      "weights" : {

      },
      "debug_info" : "input.243",
      "top" : "input.243",
      "type" : "concat",
      "name" : "input.243",
      "bottom" : "input.235,x1.27,x2.27"
    },
    {
      "pad_r" : 1,
      "fused_relu" : 0,
      "fused_tanh" : 0,
      "debug_info" : "input.245",
      "pad_fill_mode" : 0,
      "pad_b" : 1,
      "pad_l" : 1,
      "top" : "input.245",
      "blob_weights" : 275,
      "K" : 128,
      "blob_biases" : 273,
      "name" : "input.245",
      "has_batch_norm" : 0,
      "type" : "convolution",
      "n_groups" : 1,
      "pad_t" : 1,
      "has_biases" : 1,
      "C" : 32,
      "bottom" : "input.243",
      "weights" : {

      },
      "Nx" : 3,
      "pad_mode" : 0,
      "pad_value" : 0,
      "Ny" : 3,
      "n_parallel" : 1
    },
    {
      "alpha" : 0.20000000298023224,
      "bottom" : "input.245",
      "weights" : {

      },
      "mode" : 2,
      "debug_info" : "x3.27",
      "top" : "x3.27",
      "type" : "activation",
      "name" : "x3.27"
    },
    {
      "weights" : {

      },
      "debug_info" : "input.247",
      "top" : "input.247",
      "type" : "concat",
      "name" : "input.247",
      "bottom" : "input.235,x1.27,x2.27,x3.27"
    },
    {
      "pad_r" : 1,
      "fused_relu" : 0,
      "fused_tanh" : 0,
      "debug_info" : "input.249",
      "pad_fill_mode" : 0,
      "pad_b" : 1,
      "pad_l" : 1,
      "top" : "input.249",
      "blob_weights" : 279,
      "K" : 160,
      "blob_biases" : 277,
      "name" : "input.249",
      "has_batch_norm" : 0,
      "type" : "convolution",
      "n_groups" : 1,
      "pad_t" : 1,
      "has_biases" : 1,
      "C" : 32,
      "bottom" : "input.247",
      "weights" : {

      },
      "Nx" : 3,
      "pad_mode" : 0,
      "pad_value" : 0,
      "Ny" : 3,
      "n_parallel" : 1
    },
    {
      "alpha" : 0.20000000298023224,
      "bottom" : "input.249",
      "weights" : {

      },
      "mode" : 2,
      "debug_info" : "x4.27",
      "top" : "x4.27",
      "type" : "activation",
      "name" : "x4.27"
    },
    {
      "weights" : {

      },
      "debug_info" : "input.251",
      "top" : "input.251",
      "type" : "concat",
      "name" : "input.251",
      "bottom" : "input.235,x1.27,x2.27,x3.27,x4.27"
    },
    {
      "pad_r" : 1,
      "fused_relu" : 0,
      "fused_tanh" : 0,
      "debug_info" : "843",
      "pad_fill_mode" : 0,
      "pad_b" : 1,
      "pad_l" : 1,
      "top" : "843",
      "blob_weights" : 283,
      "K" : 192,
      "blob_biases" : 281,
      "name" : "843",
      "has_batch_norm" : 0,
      "type" : "convolution",
      "n_groups" : 1,
      "pad_t" : 1,
      "has_biases" : 1,
      "C" : 64,
      "bottom" : "input.251",
      "weights" : {

      },
      "Nx" : 3,
      "pad_mode" : 0,
      "pad_value" : 0,
      "Ny" : 3,
      "n_parallel" : 1
    },
    {
      "bottom" : "843,input.235",
      "alpha" : 1,
      "operation" : 0,
      "weights" : {

      },
      "fused_relu" : 0,
      "debug_info" : "input.253",
      "top" : "input.253",
      "type" : "elementwise",
      "name" : "input.253",
      "beta" : 0
    },
    {
      "pad_r" : 1,
      "fused_relu" : 0,
      "fused_tanh" : 0,
      "debug_info" : "input.255",
      "pad_fill_mode" : 0,
      "pad_b" : 1,
      "pad_l" : 1,
      "top" : "input.255",
      "blob_weights" : 287,
      "K" : 64,
      "blob_biases" : 285,
      "name" : "input.255",
      "has_batch_norm" : 0,
      "type" : "convolution",
      "n_groups" : 1,
      "pad_t" : 1,
      "has_biases" : 1,
      "C" : 32,
      "bottom" : "input.253",
      "weights" : {

      },
      "Nx" : 3,
      "pad_mode" : 0,
      "pad_value" : 0,
      "Ny" : 3,
      "n_parallel" : 1
    },
    {
      "alpha" : 0.20000000298023224,
      "bottom" : "input.255",
      "weights" : {

      },
      "mode" : 2,
      "debug_info" : "x1.29",
      "top" : "x1.29",
      "type" : "activation",
      "name" : "x1.29"
    },
    {
      "weights" : {

      },
      "debug_info" : "input.257",
      "top" : "input.257",
      "type" : "concat",
      "name" : "input.257",
      "bottom" : "input.253,x1.29"
    },
    {
      "pad_r" : 1,
      "fused_relu" : 0,
      "fused_tanh" : 0,
      "debug_info" : "input.259",
      "pad_fill_mode" : 0,
      "pad_b" : 1,
      "pad_l" : 1,
      "top" : "input.259",
      "blob_weights" : 291,
      "K" : 96,
      "blob_biases" : 289,
      "name" : "input.259",
      "has_batch_norm" : 0,
      "type" : "convolution",
      "n_groups" : 1,
      "pad_t" : 1,
      "has_biases" : 1,
      "C" : 32,
      "bottom" : "input.257",
      "weights" : {

      },
      "Nx" : 3,
      "pad_mode" : 0,
      "pad_value" : 0,
      "Ny" : 3,
      "n_parallel" : 1
    },
    {
      "alpha" : 0.20000000298023224,
      "bottom" : "input.259",
      "weights" : {

      },
      "mode" : 2,
      "debug_info" : "x2.29",
      "top" : "x2.29",
      "type" : "activation",
      "name" : "x2.29"
    },
    {
      "weights" : {

      },
      "debug_info" : "input.261",
      "top" : "input.261",
      "type" : "concat",
      "name" : "input.261",
      "bottom" : "input.253,x1.29,x2.29"
    },
    {
      "pad_r" : 1,
      "fused_relu" : 0,
      "fused_tanh" : 0,
      "debug_info" : "input.263",
      "pad_fill_mode" : 0,
      "pad_b" : 1,
      "pad_l" : 1,
      "top" : "input.263",
      "blob_weights" : 295,
      "K" : 128,
      "blob_biases" : 293,
      "name" : "input.263",
      "has_batch_norm" : 0,
      "type" : "convolution",
      "n_groups" : 1,
      "pad_t" : 1,
      "has_biases" : 1,
      "C" : 32,
      "bottom" : "input.261",
      "weights" : {

      },
      "Nx" : 3,
      "pad_mode" : 0,
      "pad_value" : 0,
      "Ny" : 3,
      "n_parallel" : 1
    },
    {
      "alpha" : 0.20000000298023224,
      "bottom" : "input.263",
      "weights" : {

      },
      "mode" : 2,
      "debug_info" : "x3.29",
      "top" : "x3.29",
      "type" : "activation",
      "name" : "x3.29"
    },
    {
      "weights" : {

      },
      "debug_info" : "input.265",
      "top" : "input.265",
      "type" : "concat",
      "name" : "input.265",
      "bottom" : "input.253,x1.29,x2.29,x3.29"
    },
    {
      "pad_r" : 1,
      "fused_relu" : 0,
      "fused_tanh" : 0,
      "debug_info" : "input.267",
      "pad_fill_mode" : 0,
      "pad_b" : 1,
      "pad_l" : 1,
      "top" : "input.267",
      "blob_weights" : 299,
      "K" : 160,
      "blob_biases" : 297,
      "name" : "input.267",
      "has_batch_norm" : 0,
      "type" : "convolution",
      "n_groups" : 1,
      "pad_t" : 1,
      "has_biases" : 1,
      "C" : 32,
      "bottom" : "input.265",
      "weights" : {

      },
      "Nx" : 3,
      "pad_mode" : 0,
      "pad_value" : 0,
      "Ny" : 3,
      "n_parallel" : 1
    },
    {
      "alpha" : 0.20000000298023224,
      "bottom" : "input.267",
      "weights" : {

      },
      "mode" : 2,
      "debug_info" : "x4.29",
      "top" : "x4.29",
      "type" : "activation",
      "name" : "x4.29"
    },
    {
      "weights" : {

      },
      "debug_info" : "input.269",
      "top" : "input.269",
      "type" : "concat",
      "name" : "input.269",
      "bottom" : "input.253,x1.29,x2.29,x3.29,x4.29"
    },
    {
      "pad_r" : 1,
      "fused_relu" : 0,
      "fused_tanh" : 0,
      "debug_info" : "898",
      "pad_fill_mode" : 0,
      "pad_b" : 1,
      "pad_l" : 1,
      "top" : "898",
      "blob_weights" : 303,
      "K" : 192,
      "blob_biases" : 301,
      "name" : "898",
      "has_batch_norm" : 0,
      "type" : "convolution",
      "n_groups" : 1,
      "pad_t" : 1,
      "has_biases" : 1,
      "C" : 64,
      "bottom" : "input.269",
      "weights" : {

      },
      "Nx" : 3,
      "pad_mode" : 0,
      "pad_value" : 0,
      "Ny" : 3,
      "n_parallel" : 1
    },
    {
      "bottom" : "898,input.253",
      "alpha" : 1,
      "operation" : 0,
      "weights" : {

      },
      "fused_relu" : 0,
      "debug_info" : "out.9",
      "top" : "out.9",
      "type" : "elementwise",
      "name" : "out.9",
      "beta" : 0
    },
    {
      "bottom" : "out.9",
      "alpha" : 0.20000000298023224,
      "operation" : 1,
      "weights" : {

      },
      "fused_relu" : 0,
      "debug_info" : "901",
      "top" : "901",
      "type" : "elementwise",
      "name" : "901",
      "beta" : 0
    },
    {
      "bottom" : "901,input.217",
      "alpha" : 1,
      "operation" : 0,
      "weights" : {

      },
      "fused_relu" : 0,
      "debug_info" : "input.271",
      "top" : "input.271",
      "type" : "elementwise",
      "name" : "input.271",
      "beta" : 0
    },
    {
      "pad_r" : 1,
      "fused_relu" : 0,
      "fused_tanh" : 0,
      "debug_info" : "input.273",
      "pad_fill_mode" : 0,
      "pad_b" : 1,
      "pad_l" : 1,
      "top" : "input.273",
      "blob_weights" : 307,
      "K" : 64,
      "blob_biases" : 305,
      "name" : "input.273",
      "has_batch_norm" : 0,
      "type" : "convolution",
      "n_groups" : 1,
      "pad_t" : 1,
      "has_biases" : 1,
      "C" : 32,
      "bottom" : "input.271",
      "weights" : {

      },
      "Nx" : 3,
      "pad_mode" : 0,
      "pad_value" : 0,
      "Ny" : 3,
      "n_parallel" : 1
    },
    {
      "alpha" : 0.20000000298023224,
      "bottom" : "input.273",
      "weights" : {

      },
      "mode" : 2,
      "debug_info" : "x1.31",
      "top" : "x1.31",
      "type" : "activation",
      "name" : "x1.31"
    },
    {
      "weights" : {

      },
      "debug_info" : "input.275",
      "top" : "input.275",
      "type" : "concat",
      "name" : "input.275",
      "bottom" : "input.271,x1.31"
    },
    {
      "pad_r" : 1,
      "fused_relu" : 0,
      "fused_tanh" : 0,
      "debug_info" : "input.277",
      "pad_fill_mode" : 0,
      "pad_b" : 1,
      "pad_l" : 1,
      "top" : "input.277",
      "blob_weights" : 311,
      "K" : 96,
      "blob_biases" : 309,
      "name" : "input.277",
      "has_batch_norm" : 0,
      "type" : "convolution",
      "n_groups" : 1,
      "pad_t" : 1,
      "has_biases" : 1,
      "C" : 32,
      "bottom" : "input.275",
      "weights" : {

      },
      "Nx" : 3,
      "pad_mode" : 0,
      "pad_value" : 0,
      "Ny" : 3,
      "n_parallel" : 1
    },
    {
      "alpha" : 0.20000000298023224,
      "bottom" : "input.277",
      "weights" : {

      },
      "mode" : 2,
      "debug_info" : "x2.31",
      "top" : "x2.31",
      "type" : "activation",
      "name" : "x2.31"
    },
    {
      "weights" : {

      },
      "debug_info" : "input.279",
      "top" : "input.279",
      "type" : "concat",
      "name" : "input.279",
      "bottom" : "input.271,x1.31,x2.31"
    },
    {
      "pad_r" : 1,
      "fused_relu" : 0,
      "fused_tanh" : 0,
      "debug_info" : "input.281",
      "pad_fill_mode" : 0,
      "pad_b" : 1,
      "pad_l" : 1,
      "top" : "input.281",
      "blob_weights" : 315,
      "K" : 128,
      "blob_biases" : 313,
      "name" : "input.281",
      "has_batch_norm" : 0,
      "type" : "convolution",
      "n_groups" : 1,
      "pad_t" : 1,
      "has_biases" : 1,
      "C" : 32,
      "bottom" : "input.279",
      "weights" : {

      },
      "Nx" : 3,
      "pad_mode" : 0,
      "pad_value" : 0,
      "Ny" : 3,
      "n_parallel" : 1
    },
    {
      "alpha" : 0.20000000298023224,
      "bottom" : "input.281",
      "weights" : {

      },
      "mode" : 2,
      "debug_info" : "x3.31",
      "top" : "x3.31",
      "type" : "activation",
      "name" : "x3.31"
    },
    {
      "weights" : {

      },
      "debug_info" : "input.283",
      "top" : "input.283",
      "type" : "concat",
      "name" : "input.283",
      "bottom" : "input.271,x1.31,x2.31,x3.31"
    },
    {
      "pad_r" : 1,
      "fused_relu" : 0,
      "fused_tanh" : 0,
      "debug_info" : "input.285",
      "pad_fill_mode" : 0,
      "pad_b" : 1,
      "pad_l" : 1,
      "top" : "input.285",
      "blob_weights" : 319,
      "K" : 160,
      "blob_biases" : 317,
      "name" : "input.285",
      "has_batch_norm" : 0,
      "type" : "convolution",
      "n_groups" : 1,
      "pad_t" : 1,
      "has_biases" : 1,
      "C" : 32,
      "bottom" : "input.283",
      "weights" : {

      },
      "Nx" : 3,
      "pad_mode" : 0,
      "pad_value" : 0,
      "Ny" : 3,
      "n_parallel" : 1
    },
    {
      "alpha" : 0.20000000298023224,
      "bottom" : "input.285",
      "weights" : {

      },
      "mode" : 2,
      "debug_info" : "x4.31",
      "top" : "x4.31",
      "type" : "activation",
      "name" : "x4.31"
    },
    {
      "weights" : {

      },
      "debug_info" : "input.287",
      "top" : "input.287",
      "type" : "concat",
      "name" : "input.287",
      "bottom" : "input.271,x1.31,x2.31,x3.31,x4.31"
    },
    {
      "pad_r" : 1,
      "fused_relu" : 0,
      "fused_tanh" : 0,
      "debug_info" : "959",
      "pad_fill_mode" : 0,
      "pad_b" : 1,
      "pad_l" : 1,
      "top" : "959",
      "blob_weights" : 323,
      "K" : 192,
      "blob_biases" : 321,
      "name" : "959",
      "has_batch_norm" : 0,
      "type" : "convolution",
      "n_groups" : 1,
      "pad_t" : 1,
      "has_biases" : 1,
      "C" : 64,
      "bottom" : "input.287",
      "weights" : {

      },
      "Nx" : 3,
      "pad_mode" : 0,
      "pad_value" : 0,
      "Ny" : 3,
      "n_parallel" : 1
    },
    {
      "bottom" : "959,input.271",
      "alpha" : 1,
      "operation" : 0,
      "weights" : {

      },
      "fused_relu" : 0,
      "debug_info" : "input.289",
      "top" : "input.289",
      "type" : "elementwise",
      "name" : "input.289",
      "beta" : 0
    },
    {
      "pad_r" : 1,
      "fused_relu" : 0,
      "fused_tanh" : 0,
      "debug_info" : "input.291",
      "pad_fill_mode" : 0,
      "pad_b" : 1,
      "pad_l" : 1,
      "top" : "input.291",
      "blob_weights" : 327,
      "K" : 64,
      "blob_biases" : 325,
      "name" : "input.291",
      "has_batch_norm" : 0,
      "type" : "convolution",
      "n_groups" : 1,
      "pad_t" : 1,
      "has_biases" : 1,
      "C" : 32,
      "bottom" : "input.289",
      "weights" : {

      },
      "Nx" : 3,
      "pad_mode" : 0,
      "pad_value" : 0,
      "Ny" : 3,
      "n_parallel" : 1
    },
    {
      "alpha" : 0.20000000298023224,
      "bottom" : "input.291",
      "weights" : {

      },
      "mode" : 2,
      "debug_info" : "x1.33",
      "top" : "x1.33",
      "type" : "activation",
      "name" : "x1.33"
    },
    {
      "weights" : {

      },
      "debug_info" : "input.293",
      "top" : "input.293",
      "type" : "concat",
      "name" : "input.293",
      "bottom" : "input.289,x1.33"
    },
    {
      "pad_r" : 1,
      "fused_relu" : 0,
      "fused_tanh" : 0,
      "debug_info" : "input.295",
      "pad_fill_mode" : 0,
      "pad_b" : 1,
      "pad_l" : 1,
      "top" : "input.295",
      "blob_weights" : 331,
      "K" : 96,
      "blob_biases" : 329,
      "name" : "input.295",
      "has_batch_norm" : 0,
      "type" : "convolution",
      "n_groups" : 1,
      "pad_t" : 1,
      "has_biases" : 1,
      "C" : 32,
      "bottom" : "input.293",
      "weights" : {

      },
      "Nx" : 3,
      "pad_mode" : 0,
      "pad_value" : 0,
      "Ny" : 3,
      "n_parallel" : 1
    },
    {
      "alpha" : 0.20000000298023224,
      "bottom" : "input.295",
      "weights" : {

      },
      "mode" : 2,
      "debug_info" : "x2.33",
      "top" : "x2.33",
      "type" : "activation",
      "name" : "x2.33"
    },
    {
      "weights" : {

      },
      "debug_info" : "input.297",
      "top" : "input.297",
      "type" : "concat",
      "name" : "input.297",
      "bottom" : "input.289,x1.33,x2.33"
    },
    {
      "pad_r" : 1,
      "fused_relu" : 0,
      "fused_tanh" : 0,
      "debug_info" : "input.299",
      "pad_fill_mode" : 0,
      "pad_b" : 1,
      "pad_l" : 1,
      "top" : "input.299",
      "blob_weights" : 335,
      "K" : 128,
      "blob_biases" : 333,
      "name" : "input.299",
      "has_batch_norm" : 0,
      "type" : "convolution",
      "n_groups" : 1,
      "pad_t" : 1,
      "has_biases" : 1,
      "C" : 32,
      "bottom" : "input.297",
      "weights" : {

      },
      "Nx" : 3,
      "pad_mode" : 0,
      "pad_value" : 0,
      "Ny" : 3,
      "n_parallel" : 1
    },
    {
      "alpha" : 0.20000000298023224,
      "bottom" : "input.299",
      "weights" : {

      },
      "mode" : 2,
      "debug_info" : "x3.33",
      "top" : "x3.33",
      "type" : "activation",
      "name" : "x3.33"
    },
    {
      "weights" : {

      },
      "debug_info" : "input.301",
      "top" : "input.301",
      "type" : "concat",
      "name" : "input.301",
      "bottom" : "input.289,x1.33,x2.33,x3.33"
    },
    {
      "pad_r" : 1,
      "fused_relu" : 0,
      "fused_tanh" : 0,
      "debug_info" : "input.303",
      "pad_fill_mode" : 0,
      "pad_b" : 1,
      "pad_l" : 1,
      "top" : "input.303",
      "blob_weights" : 339,
      "K" : 160,
      "blob_biases" : 337,
      "name" : "input.303",
      "has_batch_norm" : 0,
      "type" : "convolution",
      "n_groups" : 1,
      "pad_t" : 1,
      "has_biases" : 1,
      "C" : 32,
      "bottom" : "input.301",
      "weights" : {

      },
      "Nx" : 3,
      "pad_mode" : 0,
      "pad_value" : 0,
      "Ny" : 3,
      "n_parallel" : 1
    },
    {
      "alpha" : 0.20000000298023224,
      "bottom" : "input.303",
      "weights" : {

      },
      "mode" : 2,
      "debug_info" : "x4.33",
      "top" : "x4.33",
      "type" : "activation",
      "name" : "x4.33"
    },
    {
      "weights" : {

      },
      "debug_info" : "input.305",
      "top" : "input.305",
      "type" : "concat",
      "name" : "input.305",
      "bottom" : "input.289,x1.33,x2.33,x3.33,x4.33"
    },
    {
      "pad_r" : 1,
      "fused_relu" : 0,
      "fused_tanh" : 0,
      "debug_info" : "1014",
      "pad_fill_mode" : 0,
      "pad_b" : 1,
      "pad_l" : 1,
      "top" : "1014",
      "blob_weights" : 343,
      "K" : 192,
      "blob_biases" : 341,
      "name" : "1014",
      "has_batch_norm" : 0,
      "type" : "convolution",
      "n_groups" : 1,
      "pad_t" : 1,
      "has_biases" : 1,
      "C" : 64,
      "bottom" : "input.305",
      "weights" : {

      },
      "Nx" : 3,
      "pad_mode" : 0,
      "pad_value" : 0,
      "Ny" : 3,
      "n_parallel" : 1
    },
    {
      "bottom" : "1014,input.289",
      "alpha" : 1,
      "operation" : 0,
      "weights" : {

      },
      "fused_relu" : 0,
      "debug_info" : "input.307",
      "top" : "input.307",
      "type" : "elementwise",
      "name" : "input.307",
      "beta" : 0
    },
    {
      "pad_r" : 1,
      "fused_relu" : 0,
      "fused_tanh" : 0,
      "debug_info" : "input.309",
      "pad_fill_mode" : 0,
      "pad_b" : 1,
      "pad_l" : 1,
      "top" : "input.309",
      "blob_weights" : 347,
      "K" : 64,
      "blob_biases" : 345,
      "name" : "input.309",
      "has_batch_norm" : 0,
      "type" : "convolution",
      "n_groups" : 1,
      "pad_t" : 1,
      "has_biases" : 1,
      "C" : 32,
      "bottom" : "input.307",
      "weights" : {

      },
      "Nx" : 3,
      "pad_mode" : 0,
      "pad_value" : 0,
      "Ny" : 3,
      "n_parallel" : 1
    },
    {
      "alpha" : 0.20000000298023224,
      "bottom" : "input.309",
      "weights" : {

      },
      "mode" : 2,
      "debug_info" : "x1.35",
      "top" : "x1.35",
      "type" : "activation",
      "name" : "x1.35"
    },
    {
      "weights" : {

      },
      "debug_info" : "input.311",
      "top" : "input.311",
      "type" : "concat",
      "name" : "input.311",
      "bottom" : "input.307,x1.35"
    },
    {
      "pad_r" : 1,
      "fused_relu" : 0,
      "fused_tanh" : 0,
      "debug_info" : "input.313",
      "pad_fill_mode" : 0,
      "pad_b" : 1,
      "pad_l" : 1,
      "top" : "input.313",
      "blob_weights" : 351,
      "K" : 96,
      "blob_biases" : 349,
      "name" : "input.313",
      "has_batch_norm" : 0,
      "type" : "convolution",
      "n_groups" : 1,
      "pad_t" : 1,
      "has_biases" : 1,
      "C" : 32,
      "bottom" : "input.311",
      "weights" : {

      },
      "Nx" : 3,
      "pad_mode" : 0,
      "pad_value" : 0,
      "Ny" : 3,
      "n_parallel" : 1
    },
    {
      "alpha" : 0.20000000298023224,
      "bottom" : "input.313",
      "weights" : {

      },
      "mode" : 2,
      "debug_info" : "x2.35",
      "top" : "x2.35",
      "type" : "activation",
      "name" : "x2.35"
    },
    {
      "weights" : {

      },
      "debug_info" : "input.315",
      "top" : "input.315",
      "type" : "concat",
      "name" : "input.315",
      "bottom" : "input.307,x1.35,x2.35"
    },
    {
      "pad_r" : 1,
      "fused_relu" : 0,
      "fused_tanh" : 0,
      "debug_info" : "input.317",
      "pad_fill_mode" : 0,
      "pad_b" : 1,
      "pad_l" : 1,
      "top" : "input.317",
      "blob_weights" : 355,
      "K" : 128,
      "blob_biases" : 353,
      "name" : "input.317",
      "has_batch_norm" : 0,
      "type" : "convolution",
      "n_groups" : 1,
      "pad_t" : 1,
      "has_biases" : 1,
      "C" : 32,
      "bottom" : "input.315",
      "weights" : {

      },
      "Nx" : 3,
      "pad_mode" : 0,
      "pad_value" : 0,
      "Ny" : 3,
      "n_parallel" : 1
    },
    {
      "alpha" : 0.20000000298023224,
      "bottom" : "input.317",
      "weights" : {

      },
      "mode" : 2,
      "debug_info" : "x3.35",
      "top" : "x3.35",
      "type" : "activation",
      "name" : "x3.35"
    },
    {
      "weights" : {

      },
      "debug_info" : "input.319",
      "top" : "input.319",
      "type" : "concat",
      "name" : "input.319",
      "bottom" : "input.307,x1.35,x2.35,x3.35"
    },
    {
      "pad_r" : 1,
      "fused_relu" : 0,
      "fused_tanh" : 0,
      "debug_info" : "input.321",
      "pad_fill_mode" : 0,
      "pad_b" : 1,
      "pad_l" : 1,
      "top" : "input.321",
      "blob_weights" : 359,
      "K" : 160,
      "blob_biases" : 357,
      "name" : "input.321",
      "has_batch_norm" : 0,
      "type" : "convolution",
      "n_groups" : 1,
      "pad_t" : 1,
      "has_biases" : 1,
      "C" : 32,
      "bottom" : "input.319",
      "weights" : {

      },
      "Nx" : 3,
      "pad_mode" : 0,
      "pad_value" : 0,
      "Ny" : 3,
      "n_parallel" : 1
    },
    {
      "alpha" : 0.20000000298023224,
      "bottom" : "input.321",
      "weights" : {

      },
      "mode" : 2,
      "debug_info" : "x4.35",
      "top" : "x4.35",
      "type" : "activation",
      "name" : "x4.35"
    },
    {
      "weights" : {

      },
      "debug_info" : "input.323",
      "top" : "input.323",
      "type" : "concat",
      "name" : "input.323",
      "bottom" : "input.307,x1.35,x2.35,x3.35,x4.35"
    },
    {
      "pad_r" : 1,
      "fused_relu" : 0,
      "fused_tanh" : 0,
      "debug_info" : "1069",
      "pad_fill_mode" : 0,
      "pad_b" : 1,
      "pad_l" : 1,
      "top" : "1069",
      "blob_weights" : 363,
      "K" : 192,
      "blob_biases" : 361,
      "name" : "1069",
      "has_batch_norm" : 0,
      "type" : "convolution",
      "n_groups" : 1,
      "pad_t" : 1,
      "has_biases" : 1,
      "C" : 64,
      "bottom" : "input.323",
      "weights" : {

      },
      "Nx" : 3,
      "pad_mode" : 0,
      "pad_value" : 0,
      "Ny" : 3,
      "n_parallel" : 1
    },
    {
      "bottom" : "1069,input.307",
      "alpha" : 1,
      "operation" : 0,
      "weights" : {

      },
      "fused_relu" : 0,
      "debug_info" : "out.11",
      "top" : "out.11",
      "type" : "elementwise",
      "name" : "out.11",
      "beta" : 0
    },
    {
      "bottom" : "out.11",
      "alpha" : 0.20000000298023224,
      "operation" : 1,
      "weights" : {

      },
      "fused_relu" : 0,
      "debug_info" : "1072",
      "top" : "1072",
      "type" : "elementwise",
      "name" : "1072",
      "beta" : 0
    },
    {
      "bottom" : "1072,input.271",
      "alpha" : 1,
      "operation" : 0,
      "weights" : {

      },
      "fused_relu" : 0,
      "debug_info" : "input.325",
      "top" : "input.325",
      "type" : "elementwise",
      "name" : "input.325",
      "beta" : 0
    },
    {
      "pad_r" : 1,
      "fused_relu" : 0,
      "fused_tanh" : 0,
      "debug_info" : "input.327",
      "pad_fill_mode" : 0,
      "pad_b" : 1,
      "pad_l" : 1,
      "top" : "input.327",
      "blob_weights" : 367,
      "K" : 64,
      "blob_biases" : 365,
      "name" : "input.327",
      "has_batch_norm" : 0,
      "type" : "convolution",
      "n_groups" : 1,
      "pad_t" : 1,
      "has_biases" : 1,
      "C" : 32,
      "bottom" : "input.325",
      "weights" : {

      },
      "Nx" : 3,
      "pad_mode" : 0,
      "pad_value" : 0,
      "Ny" : 3,
      "n_parallel" : 1
    },
    {
      "alpha" : 0.20000000298023224,
      "bottom" : "input.327",
      "weights" : {

      },
      "mode" : 2,
      "debug_info" : "x1.37",
      "top" : "x1.37",
      "type" : "activation",
      "name" : "x1.37"
    },
    {
      "weights" : {

      },
      "debug_info" : "input.329",
      "top" : "input.329",
      "type" : "concat",
      "name" : "input.329",
      "bottom" : "input.325,x1.37"
    },
    {
      "pad_r" : 1,
      "fused_relu" : 0,
      "fused_tanh" : 0,
      "debug_info" : "input.331",
      "pad_fill_mode" : 0,
      "pad_b" : 1,
      "pad_l" : 1,
      "top" : "input.331",
      "blob_weights" : 371,
      "K" : 96,
      "blob_biases" : 369,
      "name" : "input.331",
      "has_batch_norm" : 0,
      "type" : "convolution",
      "n_groups" : 1,
      "pad_t" : 1,
      "has_biases" : 1,
      "C" : 32,
      "bottom" : "input.329",
      "weights" : {

      },
      "Nx" : 3,
      "pad_mode" : 0,
      "pad_value" : 0,
      "Ny" : 3,
      "n_parallel" : 1
    },
    {
      "alpha" : 0.20000000298023224,
      "bottom" : "input.331",
      "weights" : {

      },
      "mode" : 2,
      "debug_info" : "x2.37",
      "top" : "x2.37",
      "type" : "activation",
      "name" : "x2.37"
    },
    {
      "weights" : {

      },
      "debug_info" : "input.333",
      "top" : "input.333",
      "type" : "concat",
      "name" : "input.333",
      "bottom" : "input.325,x1.37,x2.37"
    },
    {
      "pad_r" : 1,
      "fused_relu" : 0,
      "fused_tanh" : 0,
      "debug_info" : "input.335",
      "pad_fill_mode" : 0,
      "pad_b" : 1,
      "pad_l" : 1,
      "top" : "input.335",
      "blob_weights" : 375,
      "K" : 128,
      "blob_biases" : 373,
      "name" : "input.335",
      "has_batch_norm" : 0,
      "type" : "convolution",
      "n_groups" : 1,
      "pad_t" : 1,
      "has_biases" : 1,
      "C" : 32,
      "bottom" : "input.333",
      "weights" : {

      },
      "Nx" : 3,
      "pad_mode" : 0,
      "pad_value" : 0,
      "Ny" : 3,
      "n_parallel" : 1
    },
    {
      "alpha" : 0.20000000298023224,
      "bottom" : "input.335",
      "weights" : {

      },
      "mode" : 2,
      "debug_info" : "x3.37",
      "top" : "x3.37",
      "type" : "activation",
      "name" : "x3.37"
    },
    {
      "weights" : {

      },
      "debug_info" : "input.337",
      "top" : "input.337",
      "type" : "concat",
      "name" : "input.337",
      "bottom" : "input.325,x1.37,x2.37,x3.37"
    },
    {
      "pad_r" : 1,
      "fused_relu" : 0,
      "fused_tanh" : 0,
      "debug_info" : "input.339",
      "pad_fill_mode" : 0,
      "pad_b" : 1,
      "pad_l" : 1,
      "top" : "input.339",
      "blob_weights" : 379,
      "K" : 160,
      "blob_biases" : 377,
      "name" : "input.339",
      "has_batch_norm" : 0,
      "type" : "convolution",
      "n_groups" : 1,
      "pad_t" : 1,
      "has_biases" : 1,
      "C" : 32,
      "bottom" : "input.337",
      "weights" : {

      },
      "Nx" : 3,
      "pad_mode" : 0,
      "pad_value" : 0,
      "Ny" : 3,
      "n_parallel" : 1
    },
    {
      "alpha" : 0.20000000298023224,
      "bottom" : "input.339",
      "weights" : {

      },
      "mode" : 2,
      "debug_info" : "x4.37",
      "top" : "x4.37",
      "type" : "activation",
      "name" : "x4.37"
    },
    {
      "weights" : {

      },
      "debug_info" : "input.341",
      "top" : "input.341",
      "type" : "concat",
      "name" : "input.341",
      "bottom" : "input.325,x1.37,x2.37,x3.37,x4.37"
    },
    {
      "pad_r" : 1,
      "fused_relu" : 0,
      "fused_tanh" : 0,
      "debug_info" : "1130",
      "pad_fill_mode" : 0,
      "pad_b" : 1,
      "pad_l" : 1,
      "top" : "1130",
      "blob_weights" : 383,
      "K" : 192,
      "blob_biases" : 381,
      "name" : "1130",
      "has_batch_norm" : 0,
      "type" : "convolution",
      "n_groups" : 1,
      "pad_t" : 1,
      "has_biases" : 1,
      "C" : 64,
      "bottom" : "input.341",
      "weights" : {

      },
      "Nx" : 3,
      "pad_mode" : 0,
      "pad_value" : 0,
      "Ny" : 3,
      "n_parallel" : 1
    },
    {
      "bottom" : "1130,input.325",
      "alpha" : 1,
      "operation" : 0,
      "weights" : {

      },
      "fused_relu" : 0,
      "debug_info" : "input.343",
      "top" : "input.343",
      "type" : "elementwise",
      "name" : "input.343",
      "beta" : 0
    },
    {
      "pad_r" : 1,
      "fused_relu" : 0,
      "fused_tanh" : 0,
      "debug_info" : "input.345",
      "pad_fill_mode" : 0,
      "pad_b" : 1,
      "pad_l" : 1,
      "top" : "input.345",
      "blob_weights" : 387,
      "K" : 64,
      "blob_biases" : 385,
      "name" : "input.345",
      "has_batch_norm" : 0,
      "type" : "convolution",
      "n_groups" : 1,
      "pad_t" : 1,
      "has_biases" : 1,
      "C" : 32,
      "bottom" : "input.343",
      "weights" : {

      },
      "Nx" : 3,
      "pad_mode" : 0,
      "pad_value" : 0,
      "Ny" : 3,
      "n_parallel" : 1
    },
    {
      "alpha" : 0.20000000298023224,
      "bottom" : "input.345",
      "weights" : {

      },
      "mode" : 2,
      "debug_info" : "x1.39",
      "top" : "x1.39",
      "type" : "activation",
      "name" : "x1.39"
    },
    {
      "weights" : {

      },
      "debug_info" : "input.347",
      "top" : "input.347",
      "type" : "concat",
      "name" : "input.347",
      "bottom" : "input.343,x1.39"
    },
    {
      "pad_r" : 1,
      "fused_relu" : 0,
      "fused_tanh" : 0,
      "debug_info" : "input.349",
      "pad_fill_mode" : 0,
      "pad_b" : 1,
      "pad_l" : 1,
      "top" : "input.349",
      "blob_weights" : 391,
      "K" : 96,
      "blob_biases" : 389,
      "name" : "input.349",
      "has_batch_norm" : 0,
      "type" : "convolution",
      "n_groups" : 1,
      "pad_t" : 1,
      "has_biases" : 1,
      "C" : 32,
      "bottom" : "input.347",
      "weights" : {

      },
      "Nx" : 3,
      "pad_mode" : 0,
      "pad_value" : 0,
      "Ny" : 3,
      "n_parallel" : 1
    },
    {
      "alpha" : 0.20000000298023224,
      "bottom" : "input.349",
      "weights" : {

      },
      "mode" : 2,
      "debug_info" : "x2.39",
      "top" : "x2.39",
      "type" : "activation",
      "name" : "x2.39"
    },
    {
      "weights" : {

      },
      "debug_info" : "input.351",
      "top" : "input.351",
      "type" : "concat",
      "name" : "input.351",
      "bottom" : "input.343,x1.39,x2.39"
    },
    {
      "pad_r" : 1,
      "fused_relu" : 0,
      "fused_tanh" : 0,
      "debug_info" : "input.353",
      "pad_fill_mode" : 0,
      "pad_b" : 1,
      "pad_l" : 1,
      "top" : "input.353",
      "blob_weights" : 395,
      "K" : 128,
      "blob_biases" : 393,
      "name" : "input.353",
      "has_batch_norm" : 0,
      "type" : "convolution",
      "n_groups" : 1,
      "pad_t" : 1,
      "has_biases" : 1,
      "C" : 32,
      "bottom" : "input.351",
      "weights" : {

      },
      "Nx" : 3,
      "pad_mode" : 0,
      "pad_value" : 0,
      "Ny" : 3,
      "n_parallel" : 1
    },
    {
      "alpha" : 0.20000000298023224,
      "bottom" : "input.353",
      "weights" : {

      },
      "mode" : 2,
      "debug_info" : "x3.39",
      "top" : "x3.39",
      "type" : "activation",
      "name" : "x3.39"
    },
    {
      "weights" : {

      },
      "debug_info" : "input.355",
      "top" : "input.355",
      "type" : "concat",
      "name" : "input.355",
      "bottom" : "input.343,x1.39,x2.39,x3.39"
    },
    {
      "pad_r" : 1,
      "fused_relu" : 0,
      "fused_tanh" : 0,
      "debug_info" : "input.357",
      "pad_fill_mode" : 0,
      "pad_b" : 1,
      "pad_l" : 1,
      "top" : "input.357",
      "blob_weights" : 399,
      "K" : 160,
      "blob_biases" : 397,
      "name" : "input.357",
      "has_batch_norm" : 0,
      "type" : "convolution",
      "n_groups" : 1,
      "pad_t" : 1,
      "has_biases" : 1,
      "C" : 32,
      "bottom" : "input.355",
      "weights" : {

      },
      "Nx" : 3,
      "pad_mode" : 0,
      "pad_value" : 0,
      "Ny" : 3,
      "n_parallel" : 1
    },
    {
      "alpha" : 0.20000000298023224,
      "bottom" : "input.357",
      "weights" : {

      },
      "mode" : 2,
      "debug_info" : "x4.39",
      "top" : "x4.39",
      "type" : "activation",
      "name" : "x4.39"
    },
    {
      "weights" : {

      },
      "debug_info" : "input.359",
      "top" : "input.359",
      "type" : "concat",
      "name" : "input.359",
      "bottom" : "input.343,x1.39,x2.39,x3.39,x4.39"
    },
    {
      "pad_r" : 1,
      "fused_relu" : 0,
      "fused_tanh" : 0,
      "debug_info" : "1185",
      "pad_fill_mode" : 0,
      "pad_b" : 1,
      "pad_l" : 1,
      "top" : "1185",
      "blob_weights" : 403,
      "K" : 192,
      "blob_biases" : 401,
      "name" : "1185",
      "has_batch_norm" : 0,
      "type" : "convolution",
      "n_groups" : 1,
      "pad_t" : 1,
      "has_biases" : 1,
      "C" : 64,
      "bottom" : "input.359",
      "weights" : {

      },
      "Nx" : 3,
      "pad_mode" : 0,
      "pad_value" : 0,
      "Ny" : 3,
      "n_parallel" : 1
    },
    {
      "bottom" : "1185,input.343",
      "alpha" : 1,
      "operation" : 0,
      "weights" : {

      },
      "fused_relu" : 0,
      "debug_info" : "input.361",
      "top" : "input.361",
      "type" : "elementwise",
      "name" : "input.361",
      "beta" : 0
    },
    {
      "pad_r" : 1,
      "fused_relu" : 0,
      "fused_tanh" : 0,
      "debug_info" : "input.363",
      "pad_fill_mode" : 0,
      "pad_b" : 1,
      "pad_l" : 1,
      "top" : "input.363",
      "blob_weights" : 407,
      "K" : 64,
      "blob_biases" : 405,
      "name" : "input.363",
      "has_batch_norm" : 0,
      "type" : "convolution",
      "n_groups" : 1,
      "pad_t" : 1,
      "has_biases" : 1,
      "C" : 32,
      "bottom" : "input.361",
      "weights" : {

      },
      "Nx" : 3,
      "pad_mode" : 0,
      "pad_value" : 0,
      "Ny" : 3,
      "n_parallel" : 1
    },
    {
      "alpha" : 0.20000000298023224,
      "bottom" : "input.363",
      "weights" : {

      },
      "mode" : 2,
      "debug_info" : "x1.41",
      "top" : "x1.41",
      "type" : "activation",
      "name" : "x1.41"
    },
    {
      "weights" : {

      },
      "debug_info" : "input.365",
      "top" : "input.365",
      "type" : "concat",
      "name" : "input.365",
      "bottom" : "input.361,x1.41"
    },
    {
      "pad_r" : 1,
      "fused_relu" : 0,
      "fused_tanh" : 0,
      "debug_info" : "input.367",
      "pad_fill_mode" : 0,
      "pad_b" : 1,
      "pad_l" : 1,
      "top" : "input.367",
      "blob_weights" : 411,
      "K" : 96,
      "blob_biases" : 409,
      "name" : "input.367",
      "has_batch_norm" : 0,
      "type" : "convolution",
      "n_groups" : 1,
      "pad_t" : 1,
      "has_biases" : 1,
      "C" : 32,
      "bottom" : "input.365",
      "weights" : {

      },
      "Nx" : 3,
      "pad_mode" : 0,
      "pad_value" : 0,
      "Ny" : 3,
      "n_parallel" : 1
    },
    {
      "alpha" : 0.20000000298023224,
      "bottom" : "input.367",
      "weights" : {

      },
      "mode" : 2,
      "debug_info" : "x2.41",
      "top" : "x2.41",
      "type" : "activation",
      "name" : "x2.41"
    },
    {
      "weights" : {

      },
      "debug_info" : "input.369",
      "top" : "input.369",
      "type" : "concat",
      "name" : "input.369",
      "bottom" : "input.361,x1.41,x2.41"
    },
    {
      "pad_r" : 1,
      "fused_relu" : 0,
      "fused_tanh" : 0,
      "debug_info" : "input.371",
      "pad_fill_mode" : 0,
      "pad_b" : 1,
      "pad_l" : 1,
      "top" : "input.371",
      "blob_weights" : 415,
      "K" : 128,
      "blob_biases" : 413,
      "name" : "input.371",
      "has_batch_norm" : 0,
      "type" : "convolution",
      "n_groups" : 1,
      "pad_t" : 1,
      "has_biases" : 1,
      "C" : 32,
      "bottom" : "input.369",
      "weights" : {

      },
      "Nx" : 3,
      "pad_mode" : 0,
      "pad_value" : 0,
      "Ny" : 3,
      "n_parallel" : 1
    },
    {
      "alpha" : 0.20000000298023224,
      "bottom" : "input.371",
      "weights" : {

      },
      "mode" : 2,
      "debug_info" : "x3.41",
      "top" : "x3.41",
      "type" : "activation",
      "name" : "x3.41"
    },
    {
      "weights" : {

      },
      "debug_info" : "input.373",
      "top" : "input.373",
      "type" : "concat",
      "name" : "input.373",
      "bottom" : "input.361,x1.41,x2.41,x3.41"
    },
    {
      "pad_r" : 1,
      "fused_relu" : 0,
      "fused_tanh" : 0,
      "debug_info" : "input.375",
      "pad_fill_mode" : 0,
      "pad_b" : 1,
      "pad_l" : 1,
      "top" : "input.375",
      "blob_weights" : 419,
      "K" : 160,
      "blob_biases" : 417,
      "name" : "input.375",
      "has_batch_norm" : 0,
      "type" : "convolution",
      "n_groups" : 1,
      "pad_t" : 1,
      "has_biases" : 1,
      "C" : 32,
      "bottom" : "input.373",
      "weights" : {

      },
      "Nx" : 3,
      "pad_mode" : 0,
      "pad_value" : 0,
      "Ny" : 3,
      "n_parallel" : 1
    },
    {
      "alpha" : 0.20000000298023224,
      "bottom" : "input.375",
      "weights" : {

      },
      "mode" : 2,
      "debug_info" : "x4.41",
      "top" : "x4.41",
      "type" : "activation",
      "name" : "x4.41"
    },
    {
      "weights" : {

      },
      "debug_info" : "input.377",
      "top" : "input.377",
      "type" : "concat",
      "name" : "input.377",
      "bottom" : "input.361,x1.41,x2.41,x3.41,x4.41"
    },
    {
      "pad_r" : 1,
      "fused_relu" : 0,
      "fused_tanh" : 0,
      "debug_info" : "1240",
      "pad_fill_mode" : 0,
      "pad_b" : 1,
      "pad_l" : 1,
      "top" : "1240",
      "blob_weights" : 423,
      "K" : 192,
      "blob_biases" : 421,
      "name" : "1240",
      "has_batch_norm" : 0,
      "type" : "convolution",
      "n_groups" : 1,
      "pad_t" : 1,
      "has_biases" : 1,
      "C" : 64,
      "bottom" : "input.377",
      "weights" : {

      },
      "Nx" : 3,
      "pad_mode" : 0,
      "pad_value" : 0,
      "Ny" : 3,
      "n_parallel" : 1
    },
    {
      "bottom" : "1240,input.361",
      "alpha" : 1,
      "operation" : 0,
      "weights" : {

      },
      "fused_relu" : 0,
      "debug_info" : "out.13",
      "top" : "out.13",
      "type" : "elementwise",
      "name" : "out.13",
      "beta" : 0
    },
    {
      "bottom" : "out.13",
      "alpha" : 0.20000000298023224,
      "operation" : 1,
      "weights" : {

      },
      "fused_relu" : 0,
      "debug_info" : "1243",
      "top" : "1243",
      "type" : "elementwise",
      "name" : "1243",
      "beta" : 0
    },
    {
      "bottom" : "1243,input.325",
      "alpha" : 1,
      "operation" : 0,
      "weights" : {

      },
      "fused_relu" : 0,
      "debug_info" : "input.379",
      "top" : "input.379",
      "type" : "elementwise",
      "name" : "input.379",
      "beta" : 0
    },
    {
      "pad_r" : 1,
      "fused_relu" : 0,
      "fused_tanh" : 0,
      "debug_info" : "input.381",
      "pad_fill_mode" : 0,
      "pad_b" : 1,
      "pad_l" : 1,
      "top" : "input.381",
      "blob_weights" : 427,
      "K" : 64,
      "blob_biases" : 425,
      "name" : "input.381",
      "has_batch_norm" : 0,
      "type" : "convolution",
      "n_groups" : 1,
      "pad_t" : 1,
      "has_biases" : 1,
      "C" : 32,
      "bottom" : "input.379",
      "weights" : {

      },
      "Nx" : 3,
      "pad_mode" : 0,
      "pad_value" : 0,
      "Ny" : 3,
      "n_parallel" : 1
    },
    {
      "alpha" : 0.20000000298023224,
      "bottom" : "input.381",
      "weights" : {

      },
      "mode" : 2,
      "debug_info" : "x1.43",
      "top" : "x1.43",
      "type" : "activation",
      "name" : "x1.43"
    },
    {
      "weights" : {

      },
      "debug_info" : "input.383",
      "top" : "input.383",
      "type" : "concat",
      "name" : "input.383",
      "bottom" : "input.379,x1.43"
    },
    {
      "pad_r" : 1,
      "fused_relu" : 0,
      "fused_tanh" : 0,
      "debug_info" : "input.385",
      "pad_fill_mode" : 0,
      "pad_b" : 1,
      "pad_l" : 1,
      "top" : "input.385",
      "blob_weights" : 431,
      "K" : 96,
      "blob_biases" : 429,
      "name" : "input.385",
      "has_batch_norm" : 0,
      "type" : "convolution",
      "n_groups" : 1,
      "pad_t" : 1,
      "has_biases" : 1,
      "C" : 32,
      "bottom" : "input.383",
      "weights" : {

      },
      "Nx" : 3,
      "pad_mode" : 0,
      "pad_value" : 0,
      "Ny" : 3,
      "n_parallel" : 1
    },
    {
      "alpha" : 0.20000000298023224,
      "bottom" : "input.385",
      "weights" : {

      },
      "mode" : 2,
      "debug_info" : "x2.43",
      "top" : "x2.43",
      "type" : "activation",
      "name" : "x2.43"
    },
    {
      "weights" : {

      },
      "debug_info" : "input.387",
      "top" : "input.387",
      "type" : "concat",
      "name" : "input.387",
      "bottom" : "input.379,x1.43,x2.43"
    },
    {
      "pad_r" : 1,
      "fused_relu" : 0,
      "fused_tanh" : 0,
      "debug_info" : "input.389",
      "pad_fill_mode" : 0,
      "pad_b" : 1,
      "pad_l" : 1,
      "top" : "input.389",
      "blob_weights" : 435,
      "K" : 128,
      "blob_biases" : 433,
      "name" : "input.389",
      "has_batch_norm" : 0,
      "type" : "convolution",
      "n_groups" : 1,
      "pad_t" : 1,
      "has_biases" : 1,
      "C" : 32,
      "bottom" : "input.387",
      "weights" : {

      },
      "Nx" : 3,
      "pad_mode" : 0,
      "pad_value" : 0,
      "Ny" : 3,
      "n_parallel" : 1
    },
    {
      "alpha" : 0.20000000298023224,
      "bottom" : "input.389",
      "weights" : {

      },
      "mode" : 2,
      "debug_info" : "x3.43",
      "top" : "x3.43",
      "type" : "activation",
      "name" : "x3.43"
    },
    {
      "weights" : {

      },
      "debug_info" : "input.391",
      "top" : "input.391",
      "type" : "concat",
      "name" : "input.391",
      "bottom" : "input.379,x1.43,x2.43,x3.43"
    },
    {
      "pad_r" : 1,
      "fused_relu" : 0,
      "fused_tanh" : 0,
      "debug_info" : "input.393",
      "pad_fill_mode" : 0,
      "pad_b" : 1,
      "pad_l" : 1,
      "top" : "input.393",
      "blob_weights" : 439,
      "K" : 160,
      "blob_biases" : 437,
      "name" : "input.393",
      "has_batch_norm" : 0,
      "type" : "convolution",
      "n_groups" : 1,
      "pad_t" : 1,
      "has_biases" : 1,
      "C" : 32,
      "bottom" : "input.391",
      "weights" : {

      },
      "Nx" : 3,
      "pad_mode" : 0,
      "pad_value" : 0,
      "Ny" : 3,
      "n_parallel" : 1
    },
    {
      "alpha" : 0.20000000298023224,
      "bottom" : "input.393",
      "weights" : {

      },
      "mode" : 2,
      "debug_info" : "x4.43",
      "top" : "x4.43",
      "type" : "activation",
      "name" : "x4.43"
    },
    {
      "weights" : {

      },
      "debug_info" : "input.395",
      "top" : "input.395",
      "type" : "concat",
      "name" : "input.395",
      "bottom" : "input.379,x1.43,x2.43,x3.43,x4.43"
    },
    {
      "pad_r" : 1,
      "fused_relu" : 0,
      "fused_tanh" : 0,
      "debug_info" : "1301",
      "pad_fill_mode" : 0,
      "pad_b" : 1,
      "pad_l" : 1,
      "top" : "1301",
      "blob_weights" : 443,
      "K" : 192,
      "blob_biases" : 441,
      "name" : "1301",
      "has_batch_norm" : 0,
      "type" : "convolution",
      "n_groups" : 1,
      "pad_t" : 1,
      "has_biases" : 1,
      "C" : 64,
      "bottom" : "input.395",
      "weights" : {

      },
      "Nx" : 3,
      "pad_mode" : 0,
      "pad_value" : 0,
      "Ny" : 3,
      "n_parallel" : 1
    },
    {
      "bottom" : "1301,input.379",
      "alpha" : 1,
      "operation" : 0,
      "weights" : {

      },
      "fused_relu" : 0,
      "debug_info" : "input.397",
      "top" : "input.397",
      "type" : "elementwise",
      "name" : "input.397",
      "beta" : 0
    },
    {
      "pad_r" : 1,
      "fused_relu" : 0,
      "fused_tanh" : 0,
      "debug_info" : "input.399",
      "pad_fill_mode" : 0,
      "pad_b" : 1,
      "pad_l" : 1,
      "top" : "input.399",
      "blob_weights" : 447,
      "K" : 64,
      "blob_biases" : 445,
      "name" : "input.399",
      "has_batch_norm" : 0,
      "type" : "convolution",
      "n_groups" : 1,
      "pad_t" : 1,
      "has_biases" : 1,
      "C" : 32,
      "bottom" : "input.397",
      "weights" : {

      },
      "Nx" : 3,
      "pad_mode" : 0,
      "pad_value" : 0,
      "Ny" : 3,
      "n_parallel" : 1
    },
    {
      "alpha" : 0.20000000298023224,
      "bottom" : "input.399",
      "weights" : {

      },
      "mode" : 2,
      "debug_info" : "x1.45",
      "top" : "x1.45",
      "type" : "activation",
      "name" : "x1.45"
    },
    {
      "weights" : {

      },
      "debug_info" : "input.401",
      "top" : "input.401",
      "type" : "concat",
      "name" : "input.401",
      "bottom" : "input.397,x1.45"
    },
    {
      "pad_r" : 1,
      "fused_relu" : 0,
      "fused_tanh" : 0,
      "debug_info" : "input.403",
      "pad_fill_mode" : 0,
      "pad_b" : 1,
      "pad_l" : 1,
      "top" : "input.403",
      "blob_weights" : 451,
      "K" : 96,
      "blob_biases" : 449,
      "name" : "input.403",
      "has_batch_norm" : 0,
      "type" : "convolution",
      "n_groups" : 1,
      "pad_t" : 1,
      "has_biases" : 1,
      "C" : 32,
      "bottom" : "input.401",
      "weights" : {

      },
      "Nx" : 3,
      "pad_mode" : 0,
      "pad_value" : 0,
      "Ny" : 3,
      "n_parallel" : 1
    },
    {
      "alpha" : 0.20000000298023224,
      "bottom" : "input.403",
      "weights" : {

      },
      "mode" : 2,
      "debug_info" : "x2.45",
      "top" : "x2.45",
      "type" : "activation",
      "name" : "x2.45"
    },
    {
      "weights" : {

      },
      "debug_info" : "input.405",
      "top" : "input.405",
      "type" : "concat",
      "name" : "input.405",
      "bottom" : "input.397,x1.45,x2.45"
    },
    {
      "pad_r" : 1,
      "fused_relu" : 0,
      "fused_tanh" : 0,
      "debug_info" : "input.407",
      "pad_fill_mode" : 0,
      "pad_b" : 1,
      "pad_l" : 1,
      "top" : "input.407",
      "blob_weights" : 455,
      "K" : 128,
      "blob_biases" : 453,
      "name" : "input.407",
      "has_batch_norm" : 0,
      "type" : "convolution",
      "n_groups" : 1,
      "pad_t" : 1,
      "has_biases" : 1,
      "C" : 32,
      "bottom" : "input.405",
      "weights" : {

      },
      "Nx" : 3,
      "pad_mode" : 0,
      "pad_value" : 0,
      "Ny" : 3,
      "n_parallel" : 1
    },
    {
      "alpha" : 0.20000000298023224,
      "bottom" : "input.407",
      "weights" : {

      },
      "mode" : 2,
      "debug_info" : "x3.45",
      "top" : "x3.45",
      "type" : "activation",
      "name" : "x3.45"
    },
    {
      "weights" : {

      },
      "debug_info" : "input.409",
      "top" : "input.409",
      "type" : "concat",
      "name" : "input.409",
      "bottom" : "input.397,x1.45,x2.45,x3.45"
    },
    {
      "pad_r" : 1,
      "fused_relu" : 0,
      "fused_tanh" : 0,
      "debug_info" : "input.411",
      "pad_fill_mode" : 0,
      "pad_b" : 1,
      "pad_l" : 1,
      "top" : "input.411",
      "blob_weights" : 459,
      "K" : 160,
      "blob_biases" : 457,
      "name" : "input.411",
      "has_batch_norm" : 0,
      "type" : "convolution",
      "n_groups" : 1,
      "pad_t" : 1,
      "has_biases" : 1,
      "C" : 32,
      "bottom" : "input.409",
      "weights" : {

      },
      "Nx" : 3,
      "pad_mode" : 0,
      "pad_value" : 0,
      "Ny" : 3,
      "n_parallel" : 1
    },
    {
      "alpha" : 0.20000000298023224,
      "bottom" : "input.411",
      "weights" : {

      },
      "mode" : 2,
      "debug_info" : "x4.45",
      "top" : "x4.45",
      "type" : "activation",
      "name" : "x4.45"
    },
    {
      "weights" : {

      },
      "debug_info" : "input.413",
      "top" : "input.413",
      "type" : "concat",
      "name" : "input.413",
      "bottom" : "input.397,x1.45,x2.45,x3.45,x4.45"
    },
    {
      "pad_r" : 1,
      "fused_relu" : 0,
      "fused_tanh" : 0,
      "debug_info" : "1356",
      "pad_fill_mode" : 0,
      "pad_b" : 1,
      "pad_l" : 1,
      "top" : "1356",
      "blob_weights" : 463,
      "K" : 192,
      "blob_biases" : 461,
      "name" : "1356",
      "has_batch_norm" : 0,
      "type" : "convolution",
      "n_groups" : 1,
      "pad_t" : 1,
      "has_biases" : 1,
      "C" : 64,
      "bottom" : "input.413",
      "weights" : {

      },
      "Nx" : 3,
      "pad_mode" : 0,
      "pad_value" : 0,
      "Ny" : 3,
      "n_parallel" : 1
    },
    {
      "bottom" : "1356,input.397",
      "alpha" : 1,
      "operation" : 0,
      "weights" : {

      },
      "fused_relu" : 0,
      "debug_info" : "input.415",
      "top" : "input.415",
      "type" : "elementwise",
      "name" : "input.415",
      "beta" : 0
    },
    {
      "pad_r" : 1,
      "fused_relu" : 0,
      "fused_tanh" : 0,
      "debug_info" : "input.417",
      "pad_fill_mode" : 0,
      "pad_b" : 1,
      "pad_l" : 1,
      "top" : "input.417",
      "blob_weights" : 467,
      "K" : 64,
      "blob_biases" : 465,
      "name" : "input.417",
      "has_batch_norm" : 0,
      "type" : "convolution",
      "n_groups" : 1,
      "pad_t" : 1,
      "has_biases" : 1,
      "C" : 32,
      "bottom" : "input.415",
      "weights" : {

      },
      "Nx" : 3,
      "pad_mode" : 0,
      "pad_value" : 0,
      "Ny" : 3,
      "n_parallel" : 1
    },
    {
      "alpha" : 0.20000000298023224,
      "bottom" : "input.417",
      "weights" : {

      },
      "mode" : 2,
      "debug_info" : "x1.47",
      "top" : "x1.47",
      "type" : "activation",
      "name" : "x1.47"
    },
    {
      "weights" : {

      },
      "debug_info" : "input.419",
      "top" : "input.419",
      "type" : "concat",
      "name" : "input.419",
      "bottom" : "input.415,x1.47"
    },
    {
      "pad_r" : 1,
      "fused_relu" : 0,
      "fused_tanh" : 0,
      "debug_info" : "input.421",
      "pad_fill_mode" : 0,
      "pad_b" : 1,
      "pad_l" : 1,
      "top" : "input.421",
      "blob_weights" : 471,
      "K" : 96,
      "blob_biases" : 469,
      "name" : "input.421",
      "has_batch_norm" : 0,
      "type" : "convolution",
      "n_groups" : 1,
      "pad_t" : 1,
      "has_biases" : 1,
      "C" : 32,
      "bottom" : "input.419",
      "weights" : {

      },
      "Nx" : 3,
      "pad_mode" : 0,
      "pad_value" : 0,
      "Ny" : 3,
      "n_parallel" : 1
    },
    {
      "alpha" : 0.20000000298023224,
      "bottom" : "input.421",
      "weights" : {

      },
      "mode" : 2,
      "debug_info" : "x2.47",
      "top" : "x2.47",
      "type" : "activation",
      "name" : "x2.47"
    },
    {
      "weights" : {

      },
      "debug_info" : "input.423",
      "top" : "input.423",
      "type" : "concat",
      "name" : "input.423",
      "bottom" : "input.415,x1.47,x2.47"
    },
    {
      "pad_r" : 1,
      "fused_relu" : 0,
      "fused_tanh" : 0,
      "debug_info" : "input.425",
      "pad_fill_mode" : 0,
      "pad_b" : 1,
      "pad_l" : 1,
      "top" : "input.425",
      "blob_weights" : 475,
      "K" : 128,
      "blob_biases" : 473,
      "name" : "input.425",
      "has_batch_norm" : 0,
      "type" : "convolution",
      "n_groups" : 1,
      "pad_t" : 1,
      "has_biases" : 1,
      "C" : 32,
      "bottom" : "input.423",
      "weights" : {

      },
      "Nx" : 3,
      "pad_mode" : 0,
      "pad_value" : 0,
      "Ny" : 3,
      "n_parallel" : 1
    },
    {
      "alpha" : 0.20000000298023224,
      "bottom" : "input.425",
      "weights" : {

      },
      "mode" : 2,
      "debug_info" : "x3.47",
      "top" : "x3.47",
      "type" : "activation",
      "name" : "x3.47"
    },
    {
      "weights" : {

      },
      "debug_info" : "input.427",
      "top" : "input.427",
      "type" : "concat",
      "name" : "input.427",
      "bottom" : "input.415,x1.47,x2.47,x3.47"
    },
    {
      "pad_r" : 1,
      "fused_relu" : 0,
      "fused_tanh" : 0,
      "debug_info" : "input.429",
      "pad_fill_mode" : 0,
      "pad_b" : 1,
      "pad_l" : 1,
      "top" : "input.429",
      "blob_weights" : 479,
      "K" : 160,
      "blob_biases" : 477,
      "name" : "input.429",
      "has_batch_norm" : 0,
      "type" : "convolution",
      "n_groups" : 1,
      "pad_t" : 1,
      "has_biases" : 1,
      "C" : 32,
      "bottom" : "input.427",
      "weights" : {

      },
      "Nx" : 3,
      "pad_mode" : 0,
      "pad_value" : 0,
      "Ny" : 3,
      "n_parallel" : 1
    },
    {
      "alpha" : 0.20000000298023224,
      "bottom" : "input.429",
      "weights" : {

      },
      "mode" : 2,
      "debug_info" : "x4.47",
      "top" : "x4.47",
      "type" : "activation",
      "name" : "x4.47"
    },
    {
      "weights" : {

      },
      "debug_info" : "input.431",
      "top" : "input.431",
      "type" : "concat",
      "name" : "input.431",
      "bottom" : "input.415,x1.47,x2.47,x3.47,x4.47"
    },
    {
      "pad_r" : 1,
      "fused_relu" : 0,
      "fused_tanh" : 0,
      "debug_info" : "1411",
      "pad_fill_mode" : 0,
      "pad_b" : 1,
      "pad_l" : 1,
      "top" : "1411",
      "blob_weights" : 483,
      "K" : 192,
      "blob_biases" : 481,
      "name" : "1411",
      "has_batch_norm" : 0,
      "type" : "convolution",
      "n_groups" : 1,
      "pad_t" : 1,
      "has_biases" : 1,
      "C" : 64,
      "bottom" : "input.431",
      "weights" : {

      },
      "Nx" : 3,
      "pad_mode" : 0,
      "pad_value" : 0,
      "Ny" : 3,
      "n_parallel" : 1
    },
    {
      "bottom" : "1411,input.415",
      "alpha" : 1,
      "operation" : 0,
      "weights" : {

      },
      "fused_relu" : 0,
      "debug_info" : "out.15",
      "top" : "out.15",
      "type" : "elementwise",
      "name" : "out.15",
      "beta" : 0
    },
    {
      "bottom" : "out.15",
      "alpha" : 0.20000000298023224,
      "operation" : 1,
      "weights" : {

      },
      "fused_relu" : 0,
      "debug_info" : "1414",
      "top" : "1414",
      "type" : "elementwise",
      "name" : "1414",
      "beta" : 0
    },
    {
      "bottom" : "1414,input.379",
      "alpha" : 1,
      "operation" : 0,
      "weights" : {

      },
      "fused_relu" : 0,
      "debug_info" : "input.433",
      "top" : "input.433",
      "type" : "elementwise",
      "name" : "input.433",
      "beta" : 0
    },
    {
      "pad_r" : 1,
      "fused_relu" : 0,
      "fused_tanh" : 0,
      "debug_info" : "input.435",
      "pad_fill_mode" : 0,
      "pad_b" : 1,
      "pad_l" : 1,
      "top" : "input.435",
      "blob_weights" : 487,
      "K" : 64,
      "blob_biases" : 485,
      "name" : "input.435",
      "has_batch_norm" : 0,
      "type" : "convolution",
      "n_groups" : 1,
      "pad_t" : 1,
      "has_biases" : 1,
      "C" : 32,
      "bottom" : "input.433",
      "weights" : {

      },
      "Nx" : 3,
      "pad_mode" : 0,
      "pad_value" : 0,
      "Ny" : 3,
      "n_parallel" : 1
    },
    {
      "alpha" : 0.20000000298023224,
      "bottom" : "input.435",
      "weights" : {

      },
      "mode" : 2,
      "debug_info" : "x1.49",
      "top" : "x1.49",
      "type" : "activation",
      "name" : "x1.49"
    },
    {
      "weights" : {

      },
      "debug_info" : "input.437",
      "top" : "input.437",
      "type" : "concat",
      "name" : "input.437",
      "bottom" : "input.433,x1.49"
    },
    {
      "pad_r" : 1,
      "fused_relu" : 0,
      "fused_tanh" : 0,
      "debug_info" : "input.439",
      "pad_fill_mode" : 0,
      "pad_b" : 1,
      "pad_l" : 1,
      "top" : "input.439",
      "blob_weights" : 491,
      "K" : 96,
      "blob_biases" : 489,
      "name" : "input.439",
      "has_batch_norm" : 0,
      "type" : "convolution",
      "n_groups" : 1,
      "pad_t" : 1,
      "has_biases" : 1,
      "C" : 32,
      "bottom" : "input.437",
      "weights" : {

      },
      "Nx" : 3,
      "pad_mode" : 0,
      "pad_value" : 0,
      "Ny" : 3,
      "n_parallel" : 1
    },
    {
      "alpha" : 0.20000000298023224,
      "bottom" : "input.439",
      "weights" : {

      },
      "mode" : 2,
      "debug_info" : "x2.49",
      "top" : "x2.49",
      "type" : "activation",
      "name" : "x2.49"
    },
    {
      "weights" : {

      },
      "debug_info" : "input.441",
      "top" : "input.441",
      "type" : "concat",
      "name" : "input.441",
      "bottom" : "input.433,x1.49,x2.49"
    },
    {
      "pad_r" : 1,
      "fused_relu" : 0,
      "fused_tanh" : 0,
      "debug_info" : "input.443",
      "pad_fill_mode" : 0,
      "pad_b" : 1,
      "pad_l" : 1,
      "top" : "input.443",
      "blob_weights" : 495,
      "K" : 128,
      "blob_biases" : 493,
      "name" : "input.443",
      "has_batch_norm" : 0,
      "type" : "convolution",
      "n_groups" : 1,
      "pad_t" : 1,
      "has_biases" : 1,
      "C" : 32,
      "bottom" : "input.441",
      "weights" : {

      },
      "Nx" : 3,
      "pad_mode" : 0,
      "pad_value" : 0,
      "Ny" : 3,
      "n_parallel" : 1
    },
    {
      "alpha" : 0.20000000298023224,
      "bottom" : "input.443",
      "weights" : {

      },
      "mode" : 2,
      "debug_info" : "x3.49",
      "top" : "x3.49",
      "type" : "activation",
      "name" : "x3.49"
    },
    {
      "weights" : {

      },
      "debug_info" : "input.445",
      "top" : "input.445",
      "type" : "concat",
      "name" : "input.445",
      "bottom" : "input.433,x1.49,x2.49,x3.49"
    },
    {
      "pad_r" : 1,
      "fused_relu" : 0,
      "fused_tanh" : 0,
      "debug_info" : "input.447",
      "pad_fill_mode" : 0,
      "pad_b" : 1,
      "pad_l" : 1,
      "top" : "input.447",
      "blob_weights" : 499,
      "K" : 160,
      "blob_biases" : 497,
      "name" : "input.447",
      "has_batch_norm" : 0,
      "type" : "convolution",
      "n_groups" : 1,
      "pad_t" : 1,
      "has_biases" : 1,
      "C" : 32,
      "bottom" : "input.445",
      "weights" : {

      },
      "Nx" : 3,
      "pad_mode" : 0,
      "pad_value" : 0,
      "Ny" : 3,
      "n_parallel" : 1
    },
    {
      "alpha" : 0.20000000298023224,
      "bottom" : "input.447",
      "weights" : {

      },
      "mode" : 2,
      "debug_info" : "x4.49",
      "top" : "x4.49",
      "type" : "activation",
      "name" : "x4.49"
    },
    {
      "weights" : {

      },
      "debug_info" : "input.449",
      "top" : "input.449",
      "type" : "concat",
      "name" : "input.449",
      "bottom" : "input.433,x1.49,x2.49,x3.49,x4.49"
    },
    {
      "pad_r" : 1,
      "fused_relu" : 0,
      "fused_tanh" : 0,
      "debug_info" : "1472",
      "pad_fill_mode" : 0,
      "pad_b" : 1,
      "pad_l" : 1,
      "top" : "1472",
      "blob_weights" : 503,
      "K" : 192,
      "blob_biases" : 501,
      "name" : "1472",
      "has_batch_norm" : 0,
      "type" : "convolution",
      "n_groups" : 1,
      "pad_t" : 1,
      "has_biases" : 1,
      "C" : 64,
      "bottom" : "input.449",
      "weights" : {

      },
      "Nx" : 3,
      "pad_mode" : 0,
      "pad_value" : 0,
      "Ny" : 3,
      "n_parallel" : 1
    },
    {
      "bottom" : "1472,input.433",
      "alpha" : 1,
      "operation" : 0,
      "weights" : {

      },
      "fused_relu" : 0,
      "debug_info" : "input.451",
      "top" : "input.451",
      "type" : "elementwise",
      "name" : "input.451",
      "beta" : 0
    },
    {
      "pad_r" : 1,
      "fused_relu" : 0,
      "fused_tanh" : 0,
      "debug_info" : "input.453",
      "pad_fill_mode" : 0,
      "pad_b" : 1,
      "pad_l" : 1,
      "top" : "input.453",
      "blob_weights" : 507,
      "K" : 64,
      "blob_biases" : 505,
      "name" : "input.453",
      "has_batch_norm" : 0,
      "type" : "convolution",
      "n_groups" : 1,
      "pad_t" : 1,
      "has_biases" : 1,
      "C" : 32,
      "bottom" : "input.451",
      "weights" : {

      },
      "Nx" : 3,
      "pad_mode" : 0,
      "pad_value" : 0,
      "Ny" : 3,
      "n_parallel" : 1
    },
    {
      "alpha" : 0.20000000298023224,
      "bottom" : "input.453",
      "weights" : {

      },
      "mode" : 2,
      "debug_info" : "x1.51",
      "top" : "x1.51",
      "type" : "activation",
      "name" : "x1.51"
    },
    {
      "weights" : {

      },
      "debug_info" : "input.455",
      "top" : "input.455",
      "type" : "concat",
      "name" : "input.455",
      "bottom" : "input.451,x1.51"
    },
    {
      "pad_r" : 1,
      "fused_relu" : 0,
      "fused_tanh" : 0,
      "debug_info" : "input.457",
      "pad_fill_mode" : 0,
      "pad_b" : 1,
      "pad_l" : 1,
      "top" : "input.457",
      "blob_weights" : 511,
      "K" : 96,
      "blob_biases" : 509,
      "name" : "input.457",
      "has_batch_norm" : 0,
      "type" : "convolution",
      "n_groups" : 1,
      "pad_t" : 1,
      "has_biases" : 1,
      "C" : 32,
      "bottom" : "input.455",
      "weights" : {

      },
      "Nx" : 3,
      "pad_mode" : 0,
      "pad_value" : 0,
      "Ny" : 3,
      "n_parallel" : 1
    },
    {
      "alpha" : 0.20000000298023224,
      "bottom" : "input.457",
      "weights" : {

      },
      "mode" : 2,
      "debug_info" : "x2.51",
      "top" : "x2.51",
      "type" : "activation",
      "name" : "x2.51"
    },
    {
      "weights" : {

      },
      "debug_info" : "input.459",
      "top" : "input.459",
      "type" : "concat",
      "name" : "input.459",
      "bottom" : "input.451,x1.51,x2.51"
    },
    {
      "pad_r" : 1,
      "fused_relu" : 0,
      "fused_tanh" : 0,
      "debug_info" : "input.461",
      "pad_fill_mode" : 0,
      "pad_b" : 1,
      "pad_l" : 1,
      "top" : "input.461",
      "blob_weights" : 515,
      "K" : 128,
      "blob_biases" : 513,
      "name" : "input.461",
      "has_batch_norm" : 0,
      "type" : "convolution",
      "n_groups" : 1,
      "pad_t" : 1,
      "has_biases" : 1,
      "C" : 32,
      "bottom" : "input.459",
      "weights" : {

      },
      "Nx" : 3,
      "pad_mode" : 0,
      "pad_value" : 0,
      "Ny" : 3,
      "n_parallel" : 1
    },
    {
      "alpha" : 0.20000000298023224,
      "bottom" : "input.461",
      "weights" : {

      },
      "mode" : 2,
      "debug_info" : "x3.51",
      "top" : "x3.51",
      "type" : "activation",
      "name" : "x3.51"
    },
    {
      "weights" : {

      },
      "debug_info" : "input.463",
      "top" : "input.463",
      "type" : "concat",
      "name" : "input.463",
      "bottom" : "input.451,x1.51,x2.51,x3.51"
    },
    {
      "pad_r" : 1,
      "fused_relu" : 0,
      "fused_tanh" : 0,
      "debug_info" : "input.465",
      "pad_fill_mode" : 0,
      "pad_b" : 1,
      "pad_l" : 1,
      "top" : "input.465",
      "blob_weights" : 519,
      "K" : 160,
      "blob_biases" : 517,
      "name" : "input.465",
      "has_batch_norm" : 0,
      "type" : "convolution",
      "n_groups" : 1,
      "pad_t" : 1,
      "has_biases" : 1,
      "C" : 32,
      "bottom" : "input.463",
      "weights" : {

      },
      "Nx" : 3,
      "pad_mode" : 0,
      "pad_value" : 0,
      "Ny" : 3,
      "n_parallel" : 1
    },
    {
      "alpha" : 0.20000000298023224,
      "bottom" : "input.465",
      "weights" : {

      },
      "mode" : 2,
      "debug_info" : "x4.51",
      "top" : "x4.51",
      "type" : "activation",
      "name" : "x4.51"
    },
    {
      "weights" : {

      },
      "debug_info" : "input.467",
      "top" : "input.467",
      "type" : "concat",
      "name" : "input.467",
      "bottom" : "input.451,x1.51,x2.51,x3.51,x4.51"
    },
    {
      "pad_r" : 1,
      "fused_relu" : 0,
      "fused_tanh" : 0,
      "debug_info" : "1527",
      "pad_fill_mode" : 0,
      "pad_b" : 1,
      "pad_l" : 1,
      "top" : "1527",
      "blob_weights" : 523,
      "K" : 192,
      "blob_biases" : 521,
      "name" : "1527",
      "has_batch_norm" : 0,
      "type" : "convolution",
      "n_groups" : 1,
      "pad_t" : 1,
      "has_biases" : 1,
      "C" : 64,
      "bottom" : "input.467",
      "weights" : {

      },
      "Nx" : 3,
      "pad_mode" : 0,
      "pad_value" : 0,
      "Ny" : 3,
      "n_parallel" : 1
    },
    {
      "bottom" : "1527,input.451",
      "alpha" : 1,
      "operation" : 0,
      "weights" : {

      },
      "fused_relu" : 0,
      "debug_info" : "input.469",
      "top" : "input.469",
      "type" : "elementwise",
      "name" : "input.469",
      "beta" : 0
    },
    {
      "pad_r" : 1,
      "fused_relu" : 0,
      "fused_tanh" : 0,
      "debug_info" : "input.471",
      "pad_fill_mode" : 0,
      "pad_b" : 1,
      "pad_l" : 1,
      "top" : "input.471",
      "blob_weights" : 527,
      "K" : 64,
      "blob_biases" : 525,
      "name" : "input.471",
      "has_batch_norm" : 0,
      "type" : "convolution",
      "n_groups" : 1,
      "pad_t" : 1,
      "has_biases" : 1,
      "C" : 32,
      "bottom" : "input.469",
      "weights" : {

      },
      "Nx" : 3,
      "pad_mode" : 0,
      "pad_value" : 0,
      "Ny" : 3,
      "n_parallel" : 1
    },
    {
      "alpha" : 0.20000000298023224,
      "bottom" : "input.471",
      "weights" : {

      },
      "mode" : 2,
      "debug_info" : "x1.53",
      "top" : "x1.53",
      "type" : "activation",
      "name" : "x1.53"
    },
    {
      "weights" : {

      },
      "debug_info" : "input.473",
      "top" : "input.473",
      "type" : "concat",
      "name" : "input.473",
      "bottom" : "input.469,x1.53"
    },
    {
      "pad_r" : 1,
      "fused_relu" : 0,
      "fused_tanh" : 0,
      "debug_info" : "input.475",
      "pad_fill_mode" : 0,
      "pad_b" : 1,
      "pad_l" : 1,
      "top" : "input.475",
      "blob_weights" : 531,
      "K" : 96,
      "blob_biases" : 529,
      "name" : "input.475",
      "has_batch_norm" : 0,
      "type" : "convolution",
      "n_groups" : 1,
      "pad_t" : 1,
      "has_biases" : 1,
      "C" : 32,
      "bottom" : "input.473",
      "weights" : {

      },
      "Nx" : 3,
      "pad_mode" : 0,
      "pad_value" : 0,
      "Ny" : 3,
      "n_parallel" : 1
    },
    {
      "alpha" : 0.20000000298023224,
      "bottom" : "input.475",
      "weights" : {

      },
      "mode" : 2,
      "debug_info" : "x2.53",
      "top" : "x2.53",
      "type" : "activation",
      "name" : "x2.53"
    },
    {
      "weights" : {

      },
      "debug_info" : "input.477",
      "top" : "input.477",
      "type" : "concat",
      "name" : "input.477",
      "bottom" : "input.469,x1.53,x2.53"
    },
    {
      "pad_r" : 1,
      "fused_relu" : 0,
      "fused_tanh" : 0,
      "debug_info" : "input.479",
      "pad_fill_mode" : 0,
      "pad_b" : 1,
      "pad_l" : 1,
      "top" : "input.479",
      "blob_weights" : 535,
      "K" : 128,
      "blob_biases" : 533,
      "name" : "input.479",
      "has_batch_norm" : 0,
      "type" : "convolution",
      "n_groups" : 1,
      "pad_t" : 1,
      "has_biases" : 1,
      "C" : 32,
      "bottom" : "input.477",
      "weights" : {

      },
      "Nx" : 3,
      "pad_mode" : 0,
      "pad_value" : 0,
      "Ny" : 3,
      "n_parallel" : 1
    },
    {
      "alpha" : 0.20000000298023224,
      "bottom" : "input.479",
      "weights" : {

      },
      "mode" : 2,
      "debug_info" : "x3.53",
      "top" : "x3.53",
      "type" : "activation",
      "name" : "x3.53"
    },
    {
      "weights" : {

      },
      "debug_info" : "input.481",
      "top" : "input.481",
      "type" : "concat",
      "name" : "input.481",
      "bottom" : "input.469,x1.53,x2.53,x3.53"
    },
    {
      "pad_r" : 1,
      "fused_relu" : 0,
      "fused_tanh" : 0,
      "debug_info" : "input.483",
      "pad_fill_mode" : 0,
      "pad_b" : 1,
      "pad_l" : 1,
      "top" : "input.483",
      "blob_weights" : 539,
      "K" : 160,
      "blob_biases" : 537,
      "name" : "input.483",
      "has_batch_norm" : 0,
      "type" : "convolution",
      "n_groups" : 1,
      "pad_t" : 1,
      "has_biases" : 1,
      "C" : 32,
      "bottom" : "input.481",
      "weights" : {

      },
      "Nx" : 3,
      "pad_mode" : 0,
      "pad_value" : 0,
      "Ny" : 3,
      "n_parallel" : 1
    },
    {
      "alpha" : 0.20000000298023224,
      "bottom" : "input.483",
      "weights" : {

      },
      "mode" : 2,
      "debug_info" : "x4.53",
      "top" : "x4.53",
      "type" : "activation",
      "name" : "x4.53"
    },
    {
      "weights" : {

      },
      "debug_info" : "input.485",
      "top" : "input.485",
      "type" : "concat",
      "name" : "input.485",
      "bottom" : "input.469,x1.53,x2.53,x3.53,x4.53"
    },
    {
      "pad_r" : 1,
      "fused_relu" : 0,
      "fused_tanh" : 0,
      "debug_info" : "1582",
      "pad_fill_mode" : 0,
      "pad_b" : 1,
      "pad_l" : 1,
      "top" : "1582",
      "blob_weights" : 543,
      "K" : 192,
      "blob_biases" : 541,
      "name" : "1582",
      "has_batch_norm" : 0,
      "type" : "convolution",
      "n_groups" : 1,
      "pad_t" : 1,
      "has_biases" : 1,
      "C" : 64,
      "bottom" : "input.485",
      "weights" : {

      },
      "Nx" : 3,
      "pad_mode" : 0,
      "pad_value" : 0,
      "Ny" : 3,
      "n_parallel" : 1
    },
    {
      "bottom" : "1582,input.469",
      "alpha" : 1,
      "operation" : 0,
      "weights" : {

      },
      "fused_relu" : 0,
      "debug_info" : "out.17",
      "top" : "out.17",
      "type" : "elementwise",
      "name" : "out.17",
      "beta" : 0
    },
    {
      "bottom" : "out.17",
      "alpha" : 0.20000000298023224,
      "operation" : 1,
      "weights" : {

      },
      "fused_relu" : 0,
      "debug_info" : "1585",
      "top" : "1585",
      "type" : "elementwise",
      "name" : "1585",
      "beta" : 0
    },
    {
      "bottom" : "1585,input.433",
      "alpha" : 1,
      "operation" : 0,
      "weights" : {

      },
      "fused_relu" : 0,
      "debug_info" : "input.487",
      "top" : "input.487",
      "type" : "elementwise",
      "name" : "input.487",
      "beta" : 0
    },
    {
      "pad_r" : 1,
      "fused_relu" : 0,
      "fused_tanh" : 0,
      "debug_info" : "input.489",
      "pad_fill_mode" : 0,
      "pad_b" : 1,
      "pad_l" : 1,
      "top" : "input.489",
      "blob_weights" : 547,
      "K" : 64,
      "blob_biases" : 545,
      "name" : "input.489",
      "has_batch_norm" : 0,
      "type" : "convolution",
      "n_groups" : 1,
      "pad_t" : 1,
      "has_biases" : 1,
      "C" : 32,
      "bottom" : "input.487",
      "weights" : {

      },
      "Nx" : 3,
      "pad_mode" : 0,
      "pad_value" : 0,
      "Ny" : 3,
      "n_parallel" : 1
    },
    {
      "alpha" : 0.20000000298023224,
      "bottom" : "input.489",
      "weights" : {

      },
      "mode" : 2,
      "debug_info" : "x1.55",
      "top" : "x1.55",
      "type" : "activation",
      "name" : "x1.55"
    },
    {
      "weights" : {

      },
      "debug_info" : "input.491",
      "top" : "input.491",
      "type" : "concat",
      "name" : "input.491",
      "bottom" : "input.487,x1.55"
    },
    {
      "pad_r" : 1,
      "fused_relu" : 0,
      "fused_tanh" : 0,
      "debug_info" : "input.493",
      "pad_fill_mode" : 0,
      "pad_b" : 1,
      "pad_l" : 1,
      "top" : "input.493",
      "blob_weights" : 551,
      "K" : 96,
      "blob_biases" : 549,
      "name" : "input.493",
      "has_batch_norm" : 0,
      "type" : "convolution",
      "n_groups" : 1,
      "pad_t" : 1,
      "has_biases" : 1,
      "C" : 32,
      "bottom" : "input.491",
      "weights" : {

      },
      "Nx" : 3,
      "pad_mode" : 0,
      "pad_value" : 0,
      "Ny" : 3,
      "n_parallel" : 1
    },
    {
      "alpha" : 0.20000000298023224,
      "bottom" : "input.493",
      "weights" : {

      },
      "mode" : 2,
      "debug_info" : "x2.55",
      "top" : "x2.55",
      "type" : "activation",
      "name" : "x2.55"
    },
    {
      "weights" : {

      },
      "debug_info" : "input.495",
      "top" : "input.495",
      "type" : "concat",
      "name" : "input.495",
      "bottom" : "input.487,x1.55,x2.55"
    },
    {
      "pad_r" : 1,
      "fused_relu" : 0,
      "fused_tanh" : 0,
      "debug_info" : "input.497",
      "pad_fill_mode" : 0,
      "pad_b" : 1,
      "pad_l" : 1,
      "top" : "input.497",
      "blob_weights" : 555,
      "K" : 128,
      "blob_biases" : 553,
      "name" : "input.497",
      "has_batch_norm" : 0,
      "type" : "convolution",
      "n_groups" : 1,
      "pad_t" : 1,
      "has_biases" : 1,
      "C" : 32,
      "bottom" : "input.495",
      "weights" : {

      },
      "Nx" : 3,
      "pad_mode" : 0,
      "pad_value" : 0,
      "Ny" : 3,
      "n_parallel" : 1
    },
    {
      "alpha" : 0.20000000298023224,
      "bottom" : "input.497",
      "weights" : {

      },
      "mode" : 2,
      "debug_info" : "x3.55",
      "top" : "x3.55",
      "type" : "activation",
      "name" : "x3.55"
    },
    {
      "weights" : {

      },
      "debug_info" : "input.499",
      "top" : "input.499",
      "type" : "concat",
      "name" : "input.499",
      "bottom" : "input.487,x1.55,x2.55,x3.55"
    },
    {
      "pad_r" : 1,
      "fused_relu" : 0,
      "fused_tanh" : 0,
      "debug_info" : "input.501",
      "pad_fill_mode" : 0,
      "pad_b" : 1,
      "pad_l" : 1,
      "top" : "input.501",
      "blob_weights" : 559,
      "K" : 160,
      "blob_biases" : 557,
      "name" : "input.501",
      "has_batch_norm" : 0,
      "type" : "convolution",
      "n_groups" : 1,
      "pad_t" : 1,
      "has_biases" : 1,
      "C" : 32,
      "bottom" : "input.499",
      "weights" : {

      },
      "Nx" : 3,
      "pad_mode" : 0,
      "pad_value" : 0,
      "Ny" : 3,
      "n_parallel" : 1
    },
    {
      "alpha" : 0.20000000298023224,
      "bottom" : "input.501",
      "weights" : {

      },
      "mode" : 2,
      "debug_info" : "x4.55",
      "top" : "x4.55",
      "type" : "activation",
      "name" : "x4.55"
    },
    {
      "weights" : {

      },
      "debug_info" : "input.503",
      "top" : "input.503",
      "type" : "concat",
      "name" : "input.503",
      "bottom" : "input.487,x1.55,x2.55,x3.55,x4.55"
    },
    {
      "pad_r" : 1,
      "fused_relu" : 0,
      "fused_tanh" : 0,
      "debug_info" : "1643",
      "pad_fill_mode" : 0,
      "pad_b" : 1,
      "pad_l" : 1,
      "top" : "1643",
      "blob_weights" : 563,
      "K" : 192,
      "blob_biases" : 561,
      "name" : "1643",
      "has_batch_norm" : 0,
      "type" : "convolution",
      "n_groups" : 1,
      "pad_t" : 1,
      "has_biases" : 1,
      "C" : 64,
      "bottom" : "input.503",
      "weights" : {

      },
      "Nx" : 3,
      "pad_mode" : 0,
      "pad_value" : 0,
      "Ny" : 3,
      "n_parallel" : 1
    },
    {
      "bottom" : "1643,input.487",
      "alpha" : 1,
      "operation" : 0,
      "weights" : {

      },
      "fused_relu" : 0,
      "debug_info" : "input.505",
      "top" : "input.505",
      "type" : "elementwise",
      "name" : "input.505",
      "beta" : 0
    },
    {
      "pad_r" : 1,
      "fused_relu" : 0,
      "fused_tanh" : 0,
      "debug_info" : "input.507",
      "pad_fill_mode" : 0,
      "pad_b" : 1,
      "pad_l" : 1,
      "top" : "input.507",
      "blob_weights" : 567,
      "K" : 64,
      "blob_biases" : 565,
      "name" : "input.507",
      "has_batch_norm" : 0,
      "type" : "convolution",
      "n_groups" : 1,
      "pad_t" : 1,
      "has_biases" : 1,
      "C" : 32,
      "bottom" : "input.505",
      "weights" : {

      },
      "Nx" : 3,
      "pad_mode" : 0,
      "pad_value" : 0,
      "Ny" : 3,
      "n_parallel" : 1
    },
    {
      "alpha" : 0.20000000298023224,
      "bottom" : "input.507",
      "weights" : {

      },
      "mode" : 2,
      "debug_info" : "x1.57",
      "top" : "x1.57",
      "type" : "activation",
      "name" : "x1.57"
    },
    {
      "weights" : {

      },
      "debug_info" : "input.509",
      "top" : "input.509",
      "type" : "concat",
      "name" : "input.509",
      "bottom" : "input.505,x1.57"
    },
    {
      "pad_r" : 1,
      "fused_relu" : 0,
      "fused_tanh" : 0,
      "debug_info" : "input.511",
      "pad_fill_mode" : 0,
      "pad_b" : 1,
      "pad_l" : 1,
      "top" : "input.511",
      "blob_weights" : 571,
      "K" : 96,
      "blob_biases" : 569,
      "name" : "input.511",
      "has_batch_norm" : 0,
      "type" : "convolution",
      "n_groups" : 1,
      "pad_t" : 1,
      "has_biases" : 1,
      "C" : 32,
      "bottom" : "input.509",
      "weights" : {

      },
      "Nx" : 3,
      "pad_mode" : 0,
      "pad_value" : 0,
      "Ny" : 3,
      "n_parallel" : 1
    },
    {
      "alpha" : 0.20000000298023224,
      "bottom" : "input.511",
      "weights" : {

      },
      "mode" : 2,
      "debug_info" : "x2.57",
      "top" : "x2.57",
      "type" : "activation",
      "name" : "x2.57"
    },
    {
      "weights" : {

      },
      "debug_info" : "input.513",
      "top" : "input.513",
      "type" : "concat",
      "name" : "input.513",
      "bottom" : "input.505,x1.57,x2.57"
    },
    {
      "pad_r" : 1,
      "fused_relu" : 0,
      "fused_tanh" : 0,
      "debug_info" : "input.515",
      "pad_fill_mode" : 0,
      "pad_b" : 1,
      "pad_l" : 1,
      "top" : "input.515",
      "blob_weights" : 575,
      "K" : 128,
      "blob_biases" : 573,
      "name" : "input.515",
      "has_batch_norm" : 0,
      "type" : "convolution",
      "n_groups" : 1,
      "pad_t" : 1,
      "has_biases" : 1,
      "C" : 32,
      "bottom" : "input.513",
      "weights" : {

      },
      "Nx" : 3,
      "pad_mode" : 0,
      "pad_value" : 0,
      "Ny" : 3,
      "n_parallel" : 1
    },
    {
      "alpha" : 0.20000000298023224,
      "bottom" : "input.515",
      "weights" : {

      },
      "mode" : 2,
      "debug_info" : "x3.57",
      "top" : "x3.57",
      "type" : "activation",
      "name" : "x3.57"
    },
    {
      "weights" : {

      },
      "debug_info" : "input.517",
      "top" : "input.517",
      "type" : "concat",
      "name" : "input.517",
      "bottom" : "input.505,x1.57,x2.57,x3.57"
    },
    {
      "pad_r" : 1,
      "fused_relu" : 0,
      "fused_tanh" : 0,
      "debug_info" : "input.519",
      "pad_fill_mode" : 0,
      "pad_b" : 1,
      "pad_l" : 1,
      "top" : "input.519",
      "blob_weights" : 579,
      "K" : 160,
      "blob_biases" : 577,
      "name" : "input.519",
      "has_batch_norm" : 0,
      "type" : "convolution",
      "n_groups" : 1,
      "pad_t" : 1,
      "has_biases" : 1,
      "C" : 32,
      "bottom" : "input.517",
      "weights" : {

      },
      "Nx" : 3,
      "pad_mode" : 0,
      "pad_value" : 0,
      "Ny" : 3,
      "n_parallel" : 1
    },
    {
      "alpha" : 0.20000000298023224,
      "bottom" : "input.519",
      "weights" : {

      },
      "mode" : 2,
      "debug_info" : "x4.57",
      "top" : "x4.57",
      "type" : "activation",
      "name" : "x4.57"
    },
    {
      "weights" : {

      },
      "debug_info" : "input.521",
      "top" : "input.521",
      "type" : "concat",
      "name" : "input.521",
      "bottom" : "input.505,x1.57,x2.57,x3.57,x4.57"
    },
    {
      "pad_r" : 1,
      "fused_relu" : 0,
      "fused_tanh" : 0,
      "debug_info" : "1698",
      "pad_fill_mode" : 0,
      "pad_b" : 1,
      "pad_l" : 1,
…
      "top" : "input.1095",
      "blob_weights" : 1219,
      "K" : 160,
      "blob_biases" : 1217,
      "name" : "input.1095",
      "has_batch_norm" : 0,
      "type" : "convolution",
      "n_groups" : 1,
      "pad_t" : 1,
      "has_biases" : 1,
      "C" : 32,
      "bottom" : "input.1093",
      "weights" : {

      },
      "Nx" : 3,
      "pad_mode" : 0,
      "pad_value" : 0,
      "Ny" : 3,
      "n_parallel" : 1
    },
    {
      "alpha" : 0.20000000298023224,
      "bottom" : "input.1095",
      "weights" : {

      },
      "mode" : 2,
      "debug_info" : "x4.121",
      "top" : "x4.121",
      "type" : "activation",
      "name" : "x4.121"
    },
    {
      "weights" : {

      },
      "debug_info" : "input.1097",
      "top" : "input.1097",
      "type" : "concat",
      "name" : "input.1097",
      "bottom" : "input.1081,x1.121,x2.121,x3.121,x4.121"
    },
    {
      "pad_r" : 1,
      "fused_relu" : 0,
      "fused_tanh" : 0,
      "debug_info" : "3524",
      "pad_fill_mode" : 0,
      "pad_b" : 1,
      "pad_l" : 1,
      "top" : "3524",
      "blob_weights" : 1223,
      "K" : 192,
      "blob_biases" : 1221,
      "name" : "3524",
      "has_batch_norm" : 0,
      "type" : "convolution",
      "n_groups" : 1,
      "pad_t" : 1,
      "has_biases" : 1,
      "C" : 64,
      "bottom" : "input.1097",
      "weights" : {

      },
      "Nx" : 3,
      "pad_mode" : 0,
      "pad_value" : 0,
      "Ny" : 3,
      "n_parallel" : 1
    },
    {
      "bottom" : "3524,input.1081",
      "alpha" : 1,
      "operation" : 0,
      "weights" : {

      },
      "fused_relu" : 0,
      "debug_info" : "input.1099",
      "top" : "input.1099",
      "type" : "elementwise",
      "name" : "input.1099",
      "beta" : 0
    },
    {
      "pad_r" : 1,
      "fused_relu" : 0,
      "fused_tanh" : 0,
      "debug_info" : "input.1101",
      "pad_fill_mode" : 0,
      "pad_b" : 1,
      "pad_l" : 1,
      "top" : "input.1101",
      "blob_weights" : 1227,
      "K" : 64,
      "blob_biases" : 1225,
      "name" : "input.1101",
      "has_batch_norm" : 0,
      "type" : "convolution",
      "n_groups" : 1,
      "pad_t" : 1,
      "has_biases" : 1,
      "C" : 32,
      "bottom" : "input.1099",
      "weights" : {

      },
      "Nx" : 3,
      "pad_mode" : 0,
      "pad_value" : 0,
      "Ny" : 3,
      "n_parallel" : 1
    },
    {
      "alpha" : 0.20000000298023224,
      "bottom" : "input.1101",
      "weights" : {

      },
      "mode" : 2,
      "debug_info" : "x1.123",
      "top" : "x1.123",
      "type" : "activation",
      "name" : "x1.123"
    },
    {
      "weights" : {

      },
      "debug_info" : "input.1103",
      "top" : "input.1103",
      "type" : "concat",
      "name" : "input.1103",
      "bottom" : "input.1099,x1.123"
    },
    {
      "pad_r" : 1,
      "fused_relu" : 0,
      "fused_tanh" : 0,
      "debug_info" : "input.1105",
      "pad_fill_mode" : 0,
      "pad_b" : 1,
      "pad_l" : 1,
      "top" : "input.1105",
      "blob_weights" : 1231,
      "K" : 96,
      "blob_biases" : 1229,
      "name" : "input.1105",
      "has_batch_norm" : 0,
      "type" : "convolution",
      "n_groups" : 1,
      "pad_t" : 1,
      "has_biases" : 1,
      "C" : 32,
      "bottom" : "input.1103",
      "weights" : {

      },
      "Nx" : 3,
      "pad_mode" : 0,
      "pad_value" : 0,
      "Ny" : 3,
      "n_parallel" : 1
    },
    {
      "alpha" : 0.20000000298023224,
      "bottom" : "input.1105",
      "weights" : {

      },
      "mode" : 2,
      "debug_info" : "x2.123",
      "top" : "x2.123",
      "type" : "activation",
      "name" : "x2.123"
    },
    {
      "weights" : {

      },
      "debug_info" : "input.1107",
      "top" : "input.1107",
      "type" : "concat",
      "name" : "input.1107",
      "bottom" : "input.1099,x1.123,x2.123"
    },
    {
      "pad_r" : 1,
      "fused_relu" : 0,
      "fused_tanh" : 0,
      "debug_info" : "input.1109",
      "pad_fill_mode" : 0,
      "pad_b" : 1,
      "pad_l" : 1,
      "top" : "input.1109",
      "blob_weights" : 1235,
      "K" : 128,
      "blob_biases" : 1233,
      "name" : "input.1109",
      "has_batch_norm" : 0,
      "type" : "convolution",
      "n_groups" : 1,
      "pad_t" : 1,
      "has_biases" : 1,
      "C" : 32,
      "bottom" : "input.1107",
      "weights" : {

      },
      "Nx" : 3,
      "pad_mode" : 0,
      "pad_value" : 0,
      "Ny" : 3,
      "n_parallel" : 1
    },
    {
      "alpha" : 0.20000000298023224,
      "bottom" : "input.1109",
      "weights" : {

      },
      "mode" : 2,
      "debug_info" : "x3.123",
      "top" : "x3.123",
      "type" : "activation",
      "name" : "x3.123"
    },
    {
      "weights" : {

      },
      "debug_info" : "input.1111",
      "top" : "input.1111",
      "type" : "concat",
      "name" : "input.1111",
      "bottom" : "input.1099,x1.123,x2.123,x3.123"
    },
    {
      "pad_r" : 1,
      "fused_relu" : 0,
      "fused_tanh" : 0,
      "debug_info" : "input.1113",
      "pad_fill_mode" : 0,
      "pad_b" : 1,
      "pad_l" : 1,
      "top" : "input.1113",
      "blob_weights" : 1239,
      "K" : 160,
      "blob_biases" : 1237,
      "name" : "input.1113",
      "has_batch_norm" : 0,
      "type" : "convolution",
      "n_groups" : 1,
      "pad_t" : 1,
      "has_biases" : 1,
      "C" : 32,
      "bottom" : "input.1111",
      "weights" : {

      },
      "Nx" : 3,
      "pad_mode" : 0,
      "pad_value" : 0,
      "Ny" : 3,
      "n_parallel" : 1
    },
    {
      "alpha" : 0.20000000298023224,
      "bottom" : "input.1113",
      "weights" : {

      },
      "mode" : 2,
      "debug_info" : "x4.123",
      "top" : "x4.123",
      "type" : "activation",
      "name" : "x4.123"
    },
    {
      "weights" : {

      },
      "debug_info" : "input.1115",
      "top" : "input.1115",
      "type" : "concat",
      "name" : "input.1115",
      "bottom" : "input.1099,x1.123,x2.123,x3.123,x4.123"
    },
    {
      "pad_r" : 1,
      "fused_relu" : 0,
      "fused_tanh" : 0,
      "debug_info" : "3579",
      "pad_fill_mode" : 0,
      "pad_b" : 1,
      "pad_l" : 1,
      "top" : "3579",
      "blob_weights" : 1243,
      "K" : 192,
      "blob_biases" : 1241,
      "name" : "3579",
      "has_batch_norm" : 0,
      "type" : "convolution",
      "n_groups" : 1,
      "pad_t" : 1,
      "has_biases" : 1,
      "C" : 64,
      "bottom" : "input.1115",
      "weights" : {

      },
      "Nx" : 3,
      "pad_mode" : 0,
      "pad_value" : 0,
      "Ny" : 3,
      "n_parallel" : 1
    },
    {
      "bottom" : "3579,input.1099",
      "alpha" : 1,
      "operation" : 0,
      "weights" : {

      },
      "fused_relu" : 0,
      "debug_info" : "input.1117",
      "top" : "input.1117",
      "type" : "elementwise",
      "name" : "input.1117",
      "beta" : 0
    },
    {
      "pad_r" : 1,
      "fused_relu" : 0,
      "fused_tanh" : 0,
      "debug_info" : "input.1119",
      "pad_fill_mode" : 0,
      "pad_b" : 1,
      "pad_l" : 1,
      "top" : "input.1119",
      "blob_weights" : 1247,
      "K" : 64,
      "blob_biases" : 1245,
      "name" : "input.1119",
      "has_batch_norm" : 0,
      "type" : "convolution",
      "n_groups" : 1,
      "pad_t" : 1,
      "has_biases" : 1,
      "C" : 32,
      "bottom" : "input.1117",
      "weights" : {

      },
      "Nx" : 3,
      "pad_mode" : 0,
      "pad_value" : 0,
      "Ny" : 3,
      "n_parallel" : 1
    },
    {
      "alpha" : 0.20000000298023224,
      "bottom" : "input.1119",
      "weights" : {

      },
      "mode" : 2,
      "debug_info" : "x1.125",
      "top" : "x1.125",
      "type" : "activation",
      "name" : "x1.125"
    },
    {
      "weights" : {

      },
      "debug_info" : "input.1121",
      "top" : "input.1121",
      "type" : "concat",
      "name" : "input.1121",
      "bottom" : "input.1117,x1.125"
    },
    {
      "pad_r" : 1,
      "fused_relu" : 0,
      "fused_tanh" : 0,
      "debug_info" : "input.1123",
      "pad_fill_mode" : 0,
      "pad_b" : 1,
      "pad_l" : 1,
      "top" : "input.1123",
      "blob_weights" : 1251,
      "K" : 96,
      "blob_biases" : 1249,
      "name" : "input.1123",
      "has_batch_norm" : 0,
      "type" : "convolution",
      "n_groups" : 1,
      "pad_t" : 1,
      "has_biases" : 1,
      "C" : 32,
      "bottom" : "input.1121",
      "weights" : {

      },
      "Nx" : 3,
      "pad_mode" : 0,
      "pad_value" : 0,
      "Ny" : 3,
      "n_parallel" : 1
    },
    {
      "alpha" : 0.20000000298023224,
      "bottom" : "input.1123",
      "weights" : {

      },
      "mode" : 2,
      "debug_info" : "x2.125",
      "top" : "x2.125",
      "type" : "activation",
      "name" : "x2.125"
    },
    {
      "weights" : {

      },
      "debug_info" : "input.1125",
      "top" : "input.1125",
      "type" : "concat",
      "name" : "input.1125",
      "bottom" : "input.1117,x1.125,x2.125"
    },
    {
      "pad_r" : 1,
      "fused_relu" : 0,
      "fused_tanh" : 0,
      "debug_info" : "input.1127",
      "pad_fill_mode" : 0,
      "pad_b" : 1,
      "pad_l" : 1,
      "top" : "input.1127",
      "blob_weights" : 1255,
      "K" : 128,
      "blob_biases" : 1253,
      "name" : "input.1127",
      "has_batch_norm" : 0,
      "type" : "convolution",
      "n_groups" : 1,
      "pad_t" : 1,
      "has_biases" : 1,
      "C" : 32,
      "bottom" : "input.1125",
      "weights" : {

      },
      "Nx" : 3,
      "pad_mode" : 0,
      "pad_value" : 0,
      "Ny" : 3,
      "n_parallel" : 1
    },
    {
      "alpha" : 0.20000000298023224,
      "bottom" : "input.1127",
      "weights" : {

      },
      "mode" : 2,
      "debug_info" : "x3.125",
      "top" : "x3.125",
      "type" : "activation",
      "name" : "x3.125"
    },
    {
      "weights" : {

      },
      "debug_info" : "input.1129",
      "top" : "input.1129",
      "type" : "concat",
      "name" : "input.1129",
      "bottom" : "input.1117,x1.125,x2.125,x3.125"
    },
    {
      "pad_r" : 1,
      "fused_relu" : 0,
      "fused_tanh" : 0,
      "debug_info" : "input.1131",
      "pad_fill_mode" : 0,
      "pad_b" : 1,
      "pad_l" : 1,
      "top" : "input.1131",
      "blob_weights" : 1259,
      "K" : 160,
      "blob_biases" : 1257,
      "name" : "input.1131",
      "has_batch_norm" : 0,
      "type" : "convolution",
      "n_groups" : 1,
      "pad_t" : 1,
      "has_biases" : 1,
      "C" : 32,
      "bottom" : "input.1129",
      "weights" : {

      },
      "Nx" : 3,
      "pad_mode" : 0,
      "pad_value" : 0,
      "Ny" : 3,
      "n_parallel" : 1
    },
    {
      "alpha" : 0.20000000298023224,
      "bottom" : "input.1131",
      "weights" : {

      },
      "mode" : 2,
      "debug_info" : "x4.125",
      "top" : "x4.125",
      "type" : "activation",
      "name" : "x4.125"
    },
    {
      "weights" : {

      },
      "debug_info" : "input.1133",
      "top" : "input.1133",
      "type" : "concat",
      "name" : "input.1133",
      "bottom" : "input.1117,x1.125,x2.125,x3.125,x4.125"
    },
    {
      "pad_r" : 1,
      "fused_relu" : 0,
      "fused_tanh" : 0,
      "debug_info" : "3634",
      "pad_fill_mode" : 0,
      "pad_b" : 1,
      "pad_l" : 1,
      "top" : "3634",
      "blob_weights" : 1263,
      "K" : 192,
      "blob_biases" : 1261,
      "name" : "3634",
      "has_batch_norm" : 0,
      "type" : "convolution",
      "n_groups" : 1,
      "pad_t" : 1,
      "has_biases" : 1,
      "C" : 64,
      "bottom" : "input.1133",
      "weights" : {

      },
      "Nx" : 3,
      "pad_mode" : 0,
      "pad_value" : 0,
      "Ny" : 3,
      "n_parallel" : 1
    },
    {
      "bottom" : "3634,input.1117",
      "alpha" : 1,
      "operation" : 0,
      "weights" : {

      },
      "fused_relu" : 0,
      "debug_info" : "out.41",
      "top" : "out.41",
      "type" : "elementwise",
      "name" : "out.41",
      "beta" : 0
    },
    {
      "bottom" : "out.41",
      "alpha" : 0.20000000298023224,
      "operation" : 1,
      "weights" : {

      },
      "fused_relu" : 0,
      "debug_info" : "3637",
      "top" : "3637",
      "type" : "elementwise",
      "name" : "3637",
      "beta" : 0
    },
    {
      "bottom" : "3637,input.1081",
      "alpha" : 1,
      "operation" : 0,
      "weights" : {

      },
      "fused_relu" : 0,
      "debug_info" : "input.1135",
      "top" : "input.1135",
      "type" : "elementwise",
      "name" : "input.1135",
      "beta" : 0
    },
    {
      "pad_r" : 1,
      "fused_relu" : 0,
      "fused_tanh" : 0,
      "debug_info" : "input.1137",
      "pad_fill_mode" : 0,
      "pad_b" : 1,
      "pad_l" : 1,
      "top" : "input.1137",
      "blob_weights" : 1267,
      "K" : 64,
      "blob_biases" : 1265,
      "name" : "input.1137",
      "has_batch_norm" : 0,
      "type" : "convolution",
      "n_groups" : 1,
      "pad_t" : 1,
      "has_biases" : 1,
      "C" : 32,
      "bottom" : "input.1135",
      "weights" : {

      },
      "Nx" : 3,
      "pad_mode" : 0,
      "pad_value" : 0,
      "Ny" : 3,
      "n_parallel" : 1
    },
    {
      "alpha" : 0.20000000298023224,
      "bottom" : "input.1137",
      "weights" : {

      },
      "mode" : 2,
      "debug_info" : "x1.127",
      "top" : "x1.127",
      "type" : "activation",
      "name" : "x1.127"
    },
    {
      "weights" : {

      },
      "debug_info" : "input.1139",
      "top" : "input.1139",
      "type" : "concat",
      "name" : "input.1139",
      "bottom" : "input.1135,x1.127"
    },
    {
      "pad_r" : 1,
      "fused_relu" : 0,
      "fused_tanh" : 0,
      "debug_info" : "input.1141",
      "pad_fill_mode" : 0,
      "pad_b" : 1,
      "pad_l" : 1,
      "top" : "input.1141",
      "blob_weights" : 1271,
      "K" : 96,
      "blob_biases" : 1269,
      "name" : "input.1141",
      "has_batch_norm" : 0,
      "type" : "convolution",
      "n_groups" : 1,
      "pad_t" : 1,
      "has_biases" : 1,
      "C" : 32,
      "bottom" : "input.1139",
      "weights" : {

      },
      "Nx" : 3,
      "pad_mode" : 0,
      "pad_value" : 0,
      "Ny" : 3,
      "n_parallel" : 1
    },
    {
      "alpha" : 0.20000000298023224,
      "bottom" : "input.1141",
      "weights" : {

      },
      "mode" : 2,
      "debug_info" : "x2.127",
      "top" : "x2.127",
      "type" : "activation",
      "name" : "x2.127"
    },
    {
      "weights" : {

      },
      "debug_info" : "input.1143",
      "top" : "input.1143",
      "type" : "concat",
      "name" : "input.1143",
      "bottom" : "input.1135,x1.127,x2.127"
    },
    {
      "pad_r" : 1,
      "fused_relu" : 0,
      "fused_tanh" : 0,
      "debug_info" : "input.1145",
      "pad_fill_mode" : 0,
      "pad_b" : 1,
      "pad_l" : 1,
      "top" : "input.1145",
      "blob_weights" : 1275,
      "K" : 128,
      "blob_biases" : 1273,
      "name" : "input.1145",
      "has_batch_norm" : 0,
      "type" : "convolution",
      "n_groups" : 1,
      "pad_t" : 1,
      "has_biases" : 1,
      "C" : 32,
      "bottom" : "input.1143",
      "weights" : {

      },
      "Nx" : 3,
      "pad_mode" : 0,
      "pad_value" : 0,
      "Ny" : 3,
      "n_parallel" : 1
    },
    {
      "alpha" : 0.20000000298023224,
      "bottom" : "input.1145",
      "weights" : {

      },
      "mode" : 2,
      "debug_info" : "x3.127",
      "top" : "x3.127",
      "type" : "activation",
      "name" : "x3.127"
    },
    {
      "weights" : {

      },
      "debug_info" : "input.1147",
      "top" : "input.1147",
      "type" : "concat",
      "name" : "input.1147",
      "bottom" : "input.1135,x1.127,x2.127,x3.127"
    },
    {
      "pad_r" : 1,
      "fused_relu" : 0,
      "fused_tanh" : 0,
      "debug_info" : "input.1149",
      "pad_fill_mode" : 0,
      "pad_b" : 1,
      "pad_l" : 1,
      "top" : "input.1149",
      "blob_weights" : 1279,
      "K" : 160,
      "blob_biases" : 1277,
      "name" : "input.1149",
      "has_batch_norm" : 0,
      "type" : "convolution",
      "n_groups" : 1,
      "pad_t" : 1,
      "has_biases" : 1,
      "C" : 32,
      "bottom" : "input.1147",
      "weights" : {

      },
      "Nx" : 3,
      "pad_mode" : 0,
      "pad_value" : 0,
      "Ny" : 3,
      "n_parallel" : 1
    },
    {
      "alpha" : 0.20000000298023224,
      "bottom" : "input.1149",
      "weights" : {

      },
      "mode" : 2,
      "debug_info" : "x4.127",
      "top" : "x4.127",
      "type" : "activation",
      "name" : "x4.127"
    },
    {
      "weights" : {

      },
      "debug_info" : "input.1151",
      "top" : "input.1151",
      "type" : "concat",
      "name" : "input.1151",
      "bottom" : "input.1135,x1.127,x2.127,x3.127,x4.127"
    },
    {
      "pad_r" : 1,
      "fused_relu" : 0,
      "fused_tanh" : 0,
      "debug_info" : "3695",
      "pad_fill_mode" : 0,
      "pad_b" : 1,
      "pad_l" : 1,
      "top" : "3695",
      "blob_weights" : 1283,
      "K" : 192,
      "blob_biases" : 1281,
      "name" : "3695",
      "has_batch_norm" : 0,
      "type" : "convolution",
      "n_groups" : 1,
      "pad_t" : 1,
      "has_biases" : 1,
      "C" : 64,
      "bottom" : "input.1151",
      "weights" : {

      },
      "Nx" : 3,
      "pad_mode" : 0,
      "pad_value" : 0,
      "Ny" : 3,
      "n_parallel" : 1
    },
    {
      "bottom" : "3695,input.1135",
      "alpha" : 1,
      "operation" : 0,
      "weights" : {

      },
      "fused_relu" : 0,
      "debug_info" : "input.1153",
      "top" : "input.1153",
      "type" : "elementwise",
      "name" : "input.1153",
      "beta" : 0
    },
    {
      "pad_r" : 1,
      "fused_relu" : 0,
      "fused_tanh" : 0,
      "debug_info" : "input.1155",
      "pad_fill_mode" : 0,
      "pad_b" : 1,
      "pad_l" : 1,
      "top" : "input.1155",
      "blob_weights" : 1287,
      "K" : 64,
      "blob_biases" : 1285,
      "name" : "input.1155",
      "has_batch_norm" : 0,
      "type" : "convolution",
      "n_groups" : 1,
      "pad_t" : 1,
      "has_biases" : 1,
      "C" : 32,
      "bottom" : "input.1153",
      "weights" : {

      },
      "Nx" : 3,
      "pad_mode" : 0,
      "pad_value" : 0,
      "Ny" : 3,
      "n_parallel" : 1
    },
    {
      "alpha" : 0.20000000298023224,
      "bottom" : "input.1155",
      "weights" : {

      },
      "mode" : 2,
      "debug_info" : "x1.129",
      "top" : "x1.129",
      "type" : "activation",
      "name" : "x1.129"
    },
    {
      "weights" : {

      },
      "debug_info" : "input.1157",
      "top" : "input.1157",
      "type" : "concat",
      "name" : "input.1157",
      "bottom" : "input.1153,x1.129"
    },
    {
      "pad_r" : 1,
      "fused_relu" : 0,
      "fused_tanh" : 0,
      "debug_info" : "input.1159",
      "pad_fill_mode" : 0,
      "pad_b" : 1,
      "pad_l" : 1,
      "top" : "input.1159",
      "blob_weights" : 1291,
      "K" : 96,
      "blob_biases" : 1289,
      "name" : "input.1159",
      "has_batch_norm" : 0,
      "type" : "convolution",
      "n_groups" : 1,
      "pad_t" : 1,
      "has_biases" : 1,
      "C" : 32,
      "bottom" : "input.1157",
      "weights" : {

      },
      "Nx" : 3,
      "pad_mode" : 0,
      "pad_value" : 0,
      "Ny" : 3,
      "n_parallel" : 1
    },
    {
      "alpha" : 0.20000000298023224,
      "bottom" : "input.1159",
      "weights" : {

      },
      "mode" : 2,
      "debug_info" : "x2.129",
      "top" : "x2.129",
      "type" : "activation",
      "name" : "x2.129"
    },
    {
      "weights" : {

      },
      "debug_info" : "input.1161",
      "top" : "input.1161",
      "type" : "concat",
      "name" : "input.1161",
      "bottom" : "input.1153,x1.129,x2.129"
    },
    {
      "pad_r" : 1,
      "fused_relu" : 0,
      "fused_tanh" : 0,
      "debug_info" : "input.1163",
      "pad_fill_mode" : 0,
      "pad_b" : 1,
      "pad_l" : 1,
      "top" : "input.1163",
      "blob_weights" : 1295,
      "K" : 128,
      "blob_biases" : 1293,
      "name" : "input.1163",
      "has_batch_norm" : 0,
      "type" : "convolution",
      "n_groups" : 1,
      "pad_t" : 1,
      "has_biases" : 1,
      "C" : 32,
      "bottom" : "input.1161",
      "weights" : {

      },
      "Nx" : 3,
      "pad_mode" : 0,
      "pad_value" : 0,
      "Ny" : 3,
      "n_parallel" : 1
    },
    {
      "alpha" : 0.20000000298023224,
      "bottom" : "input.1163",
      "weights" : {

      },
      "mode" : 2,
      "debug_info" : "x3.129",
      "top" : "x3.129",
      "type" : "activation",
      "name" : "x3.129"
    },
    {
      "weights" : {

      },
      "debug_info" : "input.1165",
      "top" : "input.1165",
      "type" : "concat",
      "name" : "input.1165",
      "bottom" : "input.1153,x1.129,x2.129,x3.129"
    },
    {
      "pad_r" : 1,
      "fused_relu" : 0,
      "fused_tanh" : 0,
      "debug_info" : "input.1167",
      "pad_fill_mode" : 0,
      "pad_b" : 1,
      "pad_l" : 1,
      "top" : "input.1167",
      "blob_weights" : 1299,
      "K" : 160,
      "blob_biases" : 1297,
      "name" : "input.1167",
      "has_batch_norm" : 0,
      "type" : "convolution",
      "n_groups" : 1,
      "pad_t" : 1,
      "has_biases" : 1,
      "C" : 32,
      "bottom" : "input.1165",
      "weights" : {

      },
      "Nx" : 3,
      "pad_mode" : 0,
      "pad_value" : 0,
      "Ny" : 3,
      "n_parallel" : 1
    },
    {
      "alpha" : 0.20000000298023224,
      "bottom" : "input.1167",
      "weights" : {

      },
      "mode" : 2,
      "debug_info" : "x4.129",
      "top" : "x4.129",
      "type" : "activation",
      "name" : "x4.129"
    },
    {
      "weights" : {

      },
      "debug_info" : "input.1169",
      "top" : "input.1169",
      "type" : "concat",
      "name" : "input.1169",
      "bottom" : "input.1153,x1.129,x2.129,x3.129,x4.129"
    },
    {
      "pad_r" : 1,
      "fused_relu" : 0,
      "fused_tanh" : 0,
      "debug_info" : "3750",
      "pad_fill_mode" : 0,
      "pad_b" : 1,
      "pad_l" : 1,
      "top" : "3750",
      "blob_weights" : 1303,
      "K" : 192,
      "blob_biases" : 1301,
      "name" : "3750",
      "has_batch_norm" : 0,
      "type" : "convolution",
      "n_groups" : 1,
      "pad_t" : 1,
      "has_biases" : 1,
      "C" : 64,
      "bottom" : "input.1169",
      "weights" : {

      },
      "Nx" : 3,
      "pad_mode" : 0,
      "pad_value" : 0,
      "Ny" : 3,
      "n_parallel" : 1
    },
    {
      "bottom" : "3750,input.1153",
      "alpha" : 1,
      "operation" : 0,
      "weights" : {

      },
      "fused_relu" : 0,
      "debug_info" : "input.1171",
      "top" : "input.1171",
      "type" : "elementwise",
      "name" : "input.1171",
      "beta" : 0
    },
    {
      "pad_r" : 1,
      "fused_relu" : 0,
      "fused_tanh" : 0,
      "debug_info" : "input.1173",
      "pad_fill_mode" : 0,
      "pad_b" : 1,
      "pad_l" : 1,
      "top" : "input.1173",
      "blob_weights" : 1307,
      "K" : 64,
      "blob_biases" : 1305,
      "name" : "input.1173",
      "has_batch_norm" : 0,
      "type" : "convolution",
      "n_groups" : 1,
      "pad_t" : 1,
      "has_biases" : 1,
      "C" : 32,
      "bottom" : "input.1171",
      "weights" : {

      },
      "Nx" : 3,
      "pad_mode" : 0,
      "pad_value" : 0,
      "Ny" : 3,
      "n_parallel" : 1
    },
    {
      "alpha" : 0.20000000298023224,
      "bottom" : "input.1173",
      "weights" : {

      },
      "mode" : 2,
      "debug_info" : "x1.131",
      "top" : "x1.131",
      "type" : "activation",
      "name" : "x1.131"
    },
    {
      "weights" : {

      },
      "debug_info" : "input.1175",
      "top" : "input.1175",
      "type" : "concat",
      "name" : "input.1175",
      "bottom" : "input.1171,x1.131"
    },
    {
      "pad_r" : 1,
      "fused_relu" : 0,
      "fused_tanh" : 0,
      "debug_info" : "input.1177",
      "pad_fill_mode" : 0,
      "pad_b" : 1,
      "pad_l" : 1,
      "top" : "input.1177",
      "blob_weights" : 1311,
      "K" : 96,
      "blob_biases" : 1309,
      "name" : "input.1177",
      "has_batch_norm" : 0,
      "type" : "convolution",
      "n_groups" : 1,
      "pad_t" : 1,
      "has_biases" : 1,
      "C" : 32,
      "bottom" : "input.1175",
      "weights" : {

      },
      "Nx" : 3,
      "pad_mode" : 0,
      "pad_value" : 0,
      "Ny" : 3,
      "n_parallel" : 1
    },
    {
      "alpha" : 0.20000000298023224,
      "bottom" : "input.1177",
      "weights" : {

      },
      "mode" : 2,
      "debug_info" : "x2.131",
      "top" : "x2.131",
      "type" : "activation",
      "name" : "x2.131"
    },
    {
      "weights" : {

      },
      "debug_info" : "input.1179",
      "top" : "input.1179",
      "type" : "concat",
      "name" : "input.1179",
      "bottom" : "input.1171,x1.131,x2.131"
    },
    {
      "pad_r" : 1,
      "fused_relu" : 0,
      "fused_tanh" : 0,
      "debug_info" : "input.1181",
      "pad_fill_mode" : 0,
      "pad_b" : 1,
      "pad_l" : 1,
      "top" : "input.1181",
      "blob_weights" : 1315,
      "K" : 128,
      "blob_biases" : 1313,
      "name" : "input.1181",
      "has_batch_norm" : 0,
      "type" : "convolution",
      "n_groups" : 1,
      "pad_t" : 1,
      "has_biases" : 1,
      "C" : 32,
      "bottom" : "input.1179",
      "weights" : {

      },
      "Nx" : 3,
      "pad_mode" : 0,
      "pad_value" : 0,
      "Ny" : 3,
      "n_parallel" : 1
    },
    {
      "alpha" : 0.20000000298023224,
      "bottom" : "input.1181",
      "weights" : {

      },
      "mode" : 2,
      "debug_info" : "x3.131",
      "top" : "x3.131",
      "type" : "activation",
      "name" : "x3.131"
    },
    {
      "weights" : {

      },
      "debug_info" : "input.1183",
      "top" : "input.1183",
      "type" : "concat",
      "name" : "input.1183",
      "bottom" : "input.1171,x1.131,x2.131,x3.131"
    },
    {
      "pad_r" : 1,
      "fused_relu" : 0,
      "fused_tanh" : 0,
      "debug_info" : "input.1185",
      "pad_fill_mode" : 0,
      "pad_b" : 1,
      "pad_l" : 1,
      "top" : "input.1185",
      "blob_weights" : 1319,
      "K" : 160,
      "blob_biases" : 1317,
      "name" : "input.1185",
      "has_batch_norm" : 0,
      "type" : "convolution",
      "n_groups" : 1,
      "pad_t" : 1,
      "has_biases" : 1,
      "C" : 32,
      "bottom" : "input.1183",
      "weights" : {

      },
      "Nx" : 3,
      "pad_mode" : 0,
      "pad_value" : 0,
      "Ny" : 3,
      "n_parallel" : 1
    },
    {
      "alpha" : 0.20000000298023224,
      "bottom" : "input.1185",
      "weights" : {

      },
      "mode" : 2,
      "debug_info" : "x4.131",
      "top" : "x4.131",
      "type" : "activation",
      "name" : "x4.131"
    },
    {
      "weights" : {

      },
      "debug_info" : "input.1187",
      "top" : "input.1187",
      "type" : "concat",
      "name" : "input.1187",
      "bottom" : "input.1171,x1.131,x2.131,x3.131,x4.131"
    },
    {
      "pad_r" : 1,
      "fused_relu" : 0,
      "fused_tanh" : 0,
      "debug_info" : "3805",
      "pad_fill_mode" : 0,
      "pad_b" : 1,
      "pad_l" : 1,
      "top" : "3805",
      "blob_weights" : 1323,
      "K" : 192,
      "blob_biases" : 1321,
      "name" : "3805",
      "has_batch_norm" : 0,
      "type" : "convolution",
      "n_groups" : 1,
      "pad_t" : 1,
      "has_biases" : 1,
      "C" : 64,
      "bottom" : "input.1187",
      "weights" : {

      },
      "Nx" : 3,
      "pad_mode" : 0,
      "pad_value" : 0,
      "Ny" : 3,
      "n_parallel" : 1
    },
    {
      "bottom" : "3805,input.1171",
      "alpha" : 1,
      "operation" : 0,
      "weights" : {

      },
      "fused_relu" : 0,
      "debug_info" : "out.43",
      "top" : "out.43",
      "type" : "elementwise",
      "name" : "out.43",
      "beta" : 0
    },
    {
      "bottom" : "out.43",
      "alpha" : 0.20000000298023224,
      "operation" : 1,
      "weights" : {

      },
      "fused_relu" : 0,
      "debug_info" : "3808",
      "top" : "3808",
      "type" : "elementwise",
      "name" : "3808",
      "beta" : 0
    },
    {
      "bottom" : "3808,input.1135",
      "alpha" : 1,
      "operation" : 0,
      "weights" : {

      },
      "fused_relu" : 0,
      "debug_info" : "input.1189",
      "top" : "input.1189",
      "type" : "elementwise",
      "name" : "input.1189",
      "beta" : 0
    },
    {
      "pad_r" : 1,
      "fused_relu" : 0,
      "fused_tanh" : 0,
      "debug_info" : "input.1191",
      "pad_fill_mode" : 0,
      "pad_b" : 1,
      "pad_l" : 1,
      "top" : "input.1191",
      "blob_weights" : 1327,
      "K" : 64,
      "blob_biases" : 1325,
      "name" : "input.1191",
      "has_batch_norm" : 0,
      "type" : "convolution",
      "n_groups" : 1,
      "pad_t" : 1,
      "has_biases" : 1,
      "C" : 32,
      "bottom" : "input.1189",
      "weights" : {

      },
      "Nx" : 3,
      "pad_mode" : 0,
      "pad_value" : 0,
      "Ny" : 3,
      "n_parallel" : 1
    },
    {
      "alpha" : 0.20000000298023224,
      "bottom" : "input.1191",
      "weights" : {

      },
      "mode" : 2,
      "debug_info" : "x1.133",
      "top" : "x1.133",
      "type" : "activation",
      "name" : "x1.133"
    },
    {
      "weights" : {

      },
      "debug_info" : "input.1193",
      "top" : "input.1193",
      "type" : "concat",
      "name" : "input.1193",
      "bottom" : "input.1189,x1.133"
    },
    {
      "pad_r" : 1,
      "fused_relu" : 0,
      "fused_tanh" : 0,
      "debug_info" : "input.1195",
      "pad_fill_mode" : 0,
      "pad_b" : 1,
      "pad_l" : 1,
      "top" : "input.1195",
      "blob_weights" : 1331,
      "K" : 96,
      "blob_biases" : 1329,
      "name" : "input.1195",
      "has_batch_norm" : 0,
      "type" : "convolution",
      "n_groups" : 1,
      "pad_t" : 1,
      "has_biases" : 1,
      "C" : 32,
      "bottom" : "input.1193",
      "weights" : {

      },
      "Nx" : 3,
      "pad_mode" : 0,
      "pad_value" : 0,
      "Ny" : 3,
      "n_parallel" : 1
    },
    {
      "alpha" : 0.20000000298023224,
      "bottom" : "input.1195",
      "weights" : {

      },
      "mode" : 2,
      "debug_info" : "x2.133",
      "top" : "x2.133",
      "type" : "activation",
      "name" : "x2.133"
    },
    {
      "weights" : {

      },
      "debug_info" : "input.1197",
      "top" : "input.1197",
      "type" : "concat",
      "name" : "input.1197",
      "bottom" : "input.1189,x1.133,x2.133"
    },
    {
      "pad_r" : 1,
      "fused_relu" : 0,
      "fused_tanh" : 0,
      "debug_info" : "input.1199",
      "pad_fill_mode" : 0,
      "pad_b" : 1,
      "pad_l" : 1,
      "top" : "input.1199",
      "blob_weights" : 1335,
      "K" : 128,
      "blob_biases" : 1333,
      "name" : "input.1199",
      "has_batch_norm" : 0,
      "type" : "convolution",
      "n_groups" : 1,
      "pad_t" : 1,
      "has_biases" : 1,
      "C" : 32,
      "bottom" : "input.1197",
      "weights" : {

      },
      "Nx" : 3,
      "pad_mode" : 0,
      "pad_value" : 0,
      "Ny" : 3,
      "n_parallel" : 1
    },
    {
      "alpha" : 0.20000000298023224,
      "bottom" : "input.1199",
      "weights" : {

      },
      "mode" : 2,
      "debug_info" : "x3.133",
      "top" : "x3.133",
      "type" : "activation",
      "name" : "x3.133"
    },
    {
      "weights" : {

      },
      "debug_info" : "input.1201",
      "top" : "input.1201",
      "type" : "concat",
      "name" : "input.1201",
      "bottom" : "input.1189,x1.133,x2.133,x3.133"
    },
    {
      "pad_r" : 1,
      "fused_relu" : 0,
      "fused_tanh" : 0,
      "debug_info" : "input.1203",
      "pad_fill_mode" : 0,
      "pad_b" : 1,
      "pad_l" : 1,
      "top" : "input.1203",
      "blob_weights" : 1339,
      "K" : 160,
      "blob_biases" : 1337,
      "name" : "input.1203",
      "has_batch_norm" : 0,
      "type" : "convolution",
      "n_groups" : 1,
      "pad_t" : 1,
      "has_biases" : 1,
      "C" : 32,
      "bottom" : "input.1201",
      "weights" : {

      },
      "Nx" : 3,
      "pad_mode" : 0,
      "pad_value" : 0,
      "Ny" : 3,
      "n_parallel" : 1
    },
    {
      "alpha" : 0.20000000298023224,
      "bottom" : "input.1203",
      "weights" : {

      },
      "mode" : 2,
      "debug_info" : "x4.133",
      "top" : "x4.133",
      "type" : "activation",
      "name" : "x4.133"
    },
    {
      "weights" : {

      },
      "debug_info" : "input.1205",
      "top" : "input.1205",
      "type" : "concat",
      "name" : "input.1205",
      "bottom" : "input.1189,x1.133,x2.133,x3.133,x4.133"
    },
    {
      "pad_r" : 1,
      "fused_relu" : 0,
      "fused_tanh" : 0,
      "debug_info" : "3866",
      "pad_fill_mode" : 0,
      "pad_b" : 1,
      "pad_l" : 1,
      "top" : "3866",
      "blob_weights" : 1343,
      "K" : 192,
      "blob_biases" : 1341,
      "name" : "3866",
      "has_batch_norm" : 0,
      "type" : "convolution",
      "n_groups" : 1,
      "pad_t" : 1,
      "has_biases" : 1,
      "C" : 64,
      "bottom" : "input.1205",
      "weights" : {

      },
      "Nx" : 3,
      "pad_mode" : 0,
      "pad_value" : 0,
      "Ny" : 3,
      "n_parallel" : 1
    },
    {
      "bottom" : "3866,input.1189",
      "alpha" : 1,
      "operation" : 0,
      "weights" : {

      },
      "fused_relu" : 0,
      "debug_info" : "input.1207",
      "top" : "input.1207",
      "type" : "elementwise",
      "name" : "input.1207",
      "beta" : 0
    },
    {
      "pad_r" : 1,
      "fused_relu" : 0,
      "fused_tanh" : 0,
      "debug_info" : "input.1209",
      "pad_fill_mode" : 0,
      "pad_b" : 1,
      "pad_l" : 1,
      "top" : "input.1209",
      "blob_weights" : 1347,
      "K" : 64,
      "blob_biases" : 1345,
      "name" : "input.1209",
      "has_batch_norm" : 0,
      "type" : "convolution",
      "n_groups" : 1,
      "pad_t" : 1,
      "has_biases" : 1,
      "C" : 32,
      "bottom" : "input.1207",
      "weights" : {

      },
      "Nx" : 3,
      "pad_mode" : 0,
      "pad_value" : 0,
      "Ny" : 3,
      "n_parallel" : 1
    },
    {
      "alpha" : 0.20000000298023224,
      "bottom" : "input.1209",
      "weights" : {

      },
      "mode" : 2,
      "debug_info" : "x1.135",
      "top" : "x1.135",
      "type" : "activation",
      "name" : "x1.135"
    },
    {
      "weights" : {

      },
      "debug_info" : "input.1211",
      "top" : "input.1211",
      "type" : "concat",
      "name" : "input.1211",
      "bottom" : "input.1207,x1.135"
    },
    {
      "pad_r" : 1,
      "fused_relu" : 0,
      "fused_tanh" : 0,
      "debug_info" : "input.1213",
      "pad_fill_mode" : 0,
      "pad_b" : 1,
      "pad_l" : 1,
      "top" : "input.1213",
      "blob_weights" : 1351,
      "K" : 96,
      "blob_biases" : 1349,
      "name" : "input.1213",
      "has_batch_norm" : 0,
      "type" : "convolution",
      "n_groups" : 1,
      "pad_t" : 1,
      "has_biases" : 1,
      "C" : 32,
      "bottom" : "input.1211",
      "weights" : {

      },
      "Nx" : 3,
      "pad_mode" : 0,
      "pad_value" : 0,
      "Ny" : 3,
      "n_parallel" : 1
    },
    {
      "alpha" : 0.20000000298023224,
      "bottom" : "input.1213",
      "weights" : {

      },
      "mode" : 2,
      "debug_info" : "x2.135",
      "top" : "x2.135",
      "type" : "activation",
      "name" : "x2.135"
    },
    {
      "weights" : {

      },
      "debug_info" : "input.1215",
      "top" : "input.1215",
      "type" : "concat",
      "name" : "input.1215",
      "bottom" : "input.1207,x1.135,x2.135"
    },
    {
      "pad_r" : 1,
      "fused_relu" : 0,
      "fused_tanh" : 0,
      "debug_info" : "input.1217",
      "pad_fill_mode" : 0,
      "pad_b" : 1,
      "pad_l" : 1,
      "top" : "input.1217",
      "blob_weights" : 1355,
      "K" : 128,
      "blob_biases" : 1353,
      "name" : "input.1217",
      "has_batch_norm" : 0,
      "type" : "convolution",
      "n_groups" : 1,
      "pad_t" : 1,
      "has_biases" : 1,
      "C" : 32,
      "bottom" : "input.1215",
      "weights" : {

      },
      "Nx" : 3,
      "pad_mode" : 0,
      "pad_value" : 0,
      "Ny" : 3,
      "n_parallel" : 1
    },
    {
      "alpha" : 0.20000000298023224,
      "bottom" : "input.1217",
      "weights" : {

      },
      "mode" : 2,
      "debug_info" : "x3.135",
      "top" : "x3.135",
      "type" : "activation",
      "name" : "x3.135"
    },
    {
      "weights" : {

      },
      "debug_info" : "input.1219",
      "top" : "input.1219",
      "type" : "concat",
      "name" : "input.1219",
      "bottom" : "input.1207,x1.135,x2.135,x3.135"
    },
    {
      "pad_r" : 1,
      "fused_relu" : 0,
      "fused_tanh" : 0,
      "debug_info" : "input.1221",
      "pad_fill_mode" : 0,
      "pad_b" : 1,
      "pad_l" : 1,
      "top" : "input.1221",
      "blob_weights" : 1359,
      "K" : 160,
      "blob_biases" : 1357,
      "name" : "input.1221",
      "has_batch_norm" : 0,
      "type" : "convolution",
      "n_groups" : 1,
      "pad_t" : 1,
      "has_biases" : 1,
      "C" : 32,
      "bottom" : "input.1219",
      "weights" : {

      },
      "Nx" : 3,
      "pad_mode" : 0,
      "pad_value" : 0,
      "Ny" : 3,
      "n_parallel" : 1
    },
    {
      "alpha" : 0.20000000298023224,
      "bottom" : "input.1221",
      "weights" : {

      },
      "mode" : 2,
      "debug_info" : "x4.135",
      "top" : "x4.135",
      "type" : "activation",
      "name" : "x4.135"
    },
    {
      "weights" : {

      },
      "debug_info" : "input.1223",
      "top" : "input.1223",
      "type" : "concat",
      "name" : "input.1223",
      "bottom" : "input.1207,x1.135,x2.135,x3.135,x4.135"
    },
    {
      "pad_r" : 1,
      "fused_relu" : 0,
      "fused_tanh" : 0,
      "debug_info" : "3921",
      "pad_fill_mode" : 0,
      "pad_b" : 1,
      "pad_l" : 1,
      "top" : "3921",
      "blob_weights" : 1363,
      "K" : 192,
      "blob_biases" : 1361,
      "name" : "3921",
      "has_batch_norm" : 0,
      "type" : "convolution",
      "n_groups" : 1,
      "pad_t" : 1,
      "has_biases" : 1,
      "C" : 64,
      "bottom" : "input.1223",
      "weights" : {

      },
      "Nx" : 3,
      "pad_mode" : 0,
      "pad_value" : 0,
      "Ny" : 3,
      "n_parallel" : 1
    },
    {
      "bottom" : "3921,input.1207",
      "alpha" : 1,
      "operation" : 0,
      "weights" : {

      },
      "fused_relu" : 0,
      "debug_info" : "input.1225",
      "top" : "input.1225",
      "type" : "elementwise",
      "name" : "input.1225",
      "beta" : 0
    },
    {
      "pad_r" : 1,
      "fused_relu" : 0,
      "fused_tanh" : 0,
      "debug_info" : "input.1227",
      "pad_fill_mode" : 0,
      "pad_b" : 1,
      "pad_l" : 1,
      "top" : "input.1227",
      "blob_weights" : 1367,
      "K" : 64,
      "blob_biases" : 1365,
      "name" : "input.1227",
      "has_batch_norm" : 0,
      "type" : "convolution",
      "n_groups" : 1,
      "pad_t" : 1,
      "has_biases" : 1,
      "C" : 32,
      "bottom" : "input.1225",
      "weights" : {

      },
      "Nx" : 3,
      "pad_mode" : 0,
      "pad_value" : 0,
      "Ny" : 3,
      "n_parallel" : 1
    },
    {
      "alpha" : 0.20000000298023224,
      "bottom" : "input.1227",
      "weights" : {

      },
      "mode" : 2,
      "debug_info" : "x1",
      "top" : "x1",
      "type" : "activation",
      "name" : "x1"
    },
    {
      "weights" : {

      },
      "debug_info" : "input.1229",
      "top" : "input.1229",
      "type" : "concat",
      "name" : "input.1229",
      "bottom" : "input.1225,x1"
    },
    {
      "pad_r" : 1,
      "fused_relu" : 0,
      "fused_tanh" : 0,
      "debug_info" : "input.1231",
      "pad_fill_mode" : 0,
      "pad_b" : 1,
      "pad_l" : 1,
      "top" : "input.1231",
      "blob_weights" : 1371,
      "K" : 96,
      "blob_biases" : 1369,
      "name" : "input.1231",
      "has_batch_norm" : 0,
      "type" : "convolution",
      "n_groups" : 1,
      "pad_t" : 1,
      "has_biases" : 1,
      "C" : 32,
      "bottom" : "input.1229",
      "weights" : {

      },
      "Nx" : 3,
      "pad_mode" : 0,
      "pad_value" : 0,
      "Ny" : 3,
      "n_parallel" : 1
    },
    {
      "alpha" : 0.20000000298023224,
      "bottom" : "input.1231",
      "weights" : {

      },
      "mode" : 2,
      "debug_info" : "x2",
      "top" : "x2",
      "type" : "activation",
      "name" : "x2"
    },
    {
      "weights" : {

      },
      "debug_info" : "input.1233",
      "top" : "input.1233",
      "type" : "concat",
      "name" : "input.1233",
      "bottom" : "input.1225,x1,x2"
    },
    {
      "pad_r" : 1,
      "fused_relu" : 0,
      "fused_tanh" : 0,
      "debug_info" : "input.1235",
      "pad_fill_mode" : 0,
      "pad_b" : 1,
      "pad_l" : 1,
      "top" : "input.1235",
      "blob_weights" : 1375,
      "K" : 128,
      "blob_biases" : 1373,
      "name" : "input.1235",
      "has_batch_norm" : 0,
      "type" : "convolution",
      "n_groups" : 1,
      "pad_t" : 1,
      "has_biases" : 1,
      "C" : 32,
      "bottom" : "input.1233",
      "weights" : {

      },
      "Nx" : 3,
      "pad_mode" : 0,
      "pad_value" : 0,
      "Ny" : 3,
      "n_parallel" : 1
    },
    {
      "alpha" : 0.20000000298023224,
      "bottom" : "input.1235",
      "weights" : {

      },
      "mode" : 2,
      "debug_info" : "x3",
      "top" : "x3",
      "type" : "activation",
      "name" : "x3"
    },
    {
      "weights" : {

      },
      "debug_info" : "input.1237",
      "top" : "input.1237",
      "type" : "concat",
      "name" : "input.1237",
      "bottom" : "input.1225,x1,x2,x3"
    },
    {
      "pad_r" : 1,
      "fused_relu" : 0,
      "fused_tanh" : 0,
      "debug_info" : "input.1239",
      "pad_fill_mode" : 0,
      "pad_b" : 1,
      "pad_l" : 1,
      "top" : "input.1239",
      "blob_weights" : 1379,
      "K" : 160,
      "blob_biases" : 1377,
      "name" : "input.1239",
      "has_batch_norm" : 0,
      "type" : "convolution",
      "n_groups" : 1,
      "pad_t" : 1,
      "has_biases" : 1,
      "C" : 32,
      "bottom" : "input.1237",
      "weights" : {

      },
      "Nx" : 3,
      "pad_mode" : 0,
      "pad_value" : 0,
      "Ny" : 3,
      "n_parallel" : 1
    },
    {
      "alpha" : 0.20000000298023224,
      "bottom" : "input.1239",
      "weights" : {

      },
      "mode" : 2,
      "debug_info" : "x4",
      "top" : "x4",
      "type" : "activation",
      "name" : "x4"
    },
    {
      "weights" : {

      },
      "debug_info" : "input.1241",
      "top" : "input.1241",
      "type" : "concat",
      "name" : "input.1241",
      "bottom" : "input.1225,x1,x2,x3,x4"
    },
    {
      "pad_r" : 1,
      "fused_relu" : 0,
      "fused_tanh" : 0,
      "debug_info" : "3976",
      "pad_fill_mode" : 0,
      "pad_b" : 1,
      "pad_l" : 1,
      "top" : "3976",
      "blob_weights" : 1383,
      "K" : 192,
      "blob_biases" : 1381,
      "name" : "3976",
      "has_batch_norm" : 0,
      "type" : "convolution",
      "n_groups" : 1,
      "pad_t" : 1,
      "has_biases" : 1,
      "C" : 64,
      "bottom" : "input.1241",
      "weights" : {

      },
      "Nx" : 3,
      "pad_mode" : 0,
      "pad_value" : 0,
      "Ny" : 3,
      "n_parallel" : 1
    },
    {
      "bottom" : "3976,input.1225",
      "alpha" : 1,
      "operation" : 0,
      "weights" : {

      },
      "fused_relu" : 0,
      "debug_info" : "out",
      "top" : "out",
      "type" : "elementwise",
      "name" : "out",
      "beta" : 0
    },
    {
      "bottom" : "out",
      "alpha" : 0.20000000298023224,
      "operation" : 1,
      "weights" : {

      },
      "fused_relu" : 0,
      "debug_info" : "3979",
      "top" : "3979",
      "type" : "elementwise",
      "name" : "3979",
      "beta" : 0
    },
    {
      "bottom" : "3979,input.1189",
      "alpha" : 1,
      "operation" : 0,
      "weights" : {

      },
      "fused_relu" : 0,
      "debug_info" : "input.1243",
      "top" : "input.1243",
      "type" : "elementwise",
      "name" : "input.1243",
      "beta" : 0
    },
    {
      "pad_r" : 1,
      "fused_relu" : 0,
      "fused_tanh" : 0,
      "debug_info" : "body_feat",
      "pad_fill_mode" : 0,
      "pad_b" : 1,
      "pad_l" : 1,
      "top" : "body_feat",
      "blob_weights" : 1387,
      "K" : 64,
      "blob_biases" : 1385,
      "name" : "body_feat",
      "has_batch_norm" : 0,
      "type" : "convolution",
      "n_groups" : 1,
      "pad_t" : 1,
      "has_biases" : 1,
      "C" : 64,
      "bottom" : "input.1243",
      "weights" : {

      },
      "Nx" : 3,
      "pad_mode" : 0,
      "pad_value" : 0,
      "Ny" : 3,
      "n_parallel" : 1
    },
    {
      "bottom" : "input.1,body_feat",
      "alpha" : 1,
      "operation" : 0,
      "weights" : {

      },
      "fused_relu" : 0,
      "debug_info" : "input.1245",
      "top" : "input.1245",
      "type" : "elementwise",
      "name" : "input.1245",
      "beta" : 0
    },
    {
      "top" : "input.1247",
      "use_fractional_scale_factors" : false,
      "weights" : {

      },
      "fractional_scaling_factor_y" : 1,
      "type" : "upsample",
      "scaling_factor_x" : 2,
      "mode" : 0,
      "align_corners" : 0,
      "bottom" : "input.1245",
      "debug_info" : "input.1247",
      "fractional_scaling_factor_x" : 1,
      "is_legacy_mode" : 1,
      "name" : "input.1247",
      "scaling_factor_y" : 2
    },
    {
      "pad_r" : 1,
      "fused_relu" : 0,
      "fused_tanh" : 0,
      "debug_info" : "input.1249",
      "pad_fill_mode" : 0,
      "pad_b" : 1,
      "pad_l" : 1,
      "top" : "input.1249",
      "blob_weights" : 1391,
      "K" : 64,
      "blob_biases" : 1389,
      "name" : "input.1249",
      "has_batch_norm" : 0,
      "type" : "convolution",
      "n_groups" : 1,
      "pad_t" : 1,
      "has_biases" : 1,
      "C" : 64,
      "bottom" : "input.1247",
      "weights" : {

      },
      "Nx" : 3,
      "pad_mode" : 0,
      "pad_value" : 0,
      "Ny" : 3,
      "n_parallel" : 1
    },
    {
      "alpha" : 0.20000000298023224,
      "bottom" : "input.1249",
      "weights" : {

      },
      "mode" : 2,
      "debug_info" : "input.1251",
      "top" : "input.1251",
      "type" : "activation",
      "name" : "input.1251"
    },
    {
      "top" : "input.1253",
      "use_fractional_scale_factors" : false,
      "weights" : {

      },
      "fractional_scaling_factor_y" : 1,
      "type" : "upsample",
      "scaling_factor_x" : 2,
      "mode" : 0,
      "align_corners" : 0,
      "bottom" : "input.1251",
      "debug_info" : "input.1253",
      "fractional_scaling_factor_x" : 1,
      "is_legacy_mode" : 1,
      "name" : "input.1253",
      "scaling_factor_y" : 2
    },
    {
      "pad_r" : 1,
      "fused_relu" : 0,
      "fused_tanh" : 0,
      "debug_info" : "input.1255",
      "pad_fill_mode" : 0,
      "pad_b" : 1,
      "pad_l" : 1,
      "top" : "input.1255",
      "blob_weights" : 1395,
      "K" : 64,
      "blob_biases" : 1393,
      "name" : "input.1255",
      "has_batch_norm" : 0,
      "type" : "convolution",
      "n_groups" : 1,
      "pad_t" : 1,
      "has_biases" : 1,
      "C" : 64,
      "bottom" : "input.1253",
      "weights" : {

      },
      "Nx" : 3,
      "pad_mode" : 0,
      "pad_value" : 0,
      "Ny" : 3,
      "n_parallel" : 1
    },
    {
      "alpha" : 0.20000000298023224,
      "bottom" : "input.1255",
      "weights" : {

      },
      "mode" : 2,
      "debug_info" : "input.1257",
      "top" : "input.1257",
      "type" : "activation",
      "name" : "input.1257"
    },
    {
      "pad_r" : 1,
      "fused_relu" : 0,
      "fused_tanh" : 0,
      "debug_info" : "input.1259",
      "pad_fill_mode" : 0,
      "pad_b" : 1,
      "pad_l" : 1,
      "top" : "input.1259",
      "blob_weights" : 1399,
      "K" : 64,
      "blob_biases" : 1397,
      "name" : "input.1259",
      "has_batch_norm" : 0,
      "type" : "convolution",
      "n_groups" : 1,
      "pad_t" : 1,
      "has_biases" : 1,
      "C" : 64,
      "bottom" : "input.1257",
      "weights" : {

      },
      "Nx" : 3,
      "pad_mode" : 0,
      "pad_value" : 0,
      "Ny" : 3,
      "n_parallel" : 1
    },
    {
      "alpha" : 0.20000000298023224,
      "bottom" : "input.1259",
      "weights" : {

      },
      "mode" : 2,
      "debug_info" : "input",
      "top" : "input_1",
      "type" : "activation",
      "name" : "input"
    },
    {
      "pad_r" : 1,
      "fused_relu" : 0,
      "fused_tanh" : 0,
      "debug_info" : "var_4053",
      "pad_fill_mode" : 0,
      "pad_b" : 1,
      "pad_l" : 1,
      "top" : "var_4053",
      "blob_weights" : 1403,
      "K" : 64,
      "blob_biases" : 1401,
      "name" : "var_4053",
      "has_batch_norm" : 0,
      "type" : "convolution",
      "n_groups" : 1,
      "pad_t" : 1,
      "has_biases" : 1,
      "C" : 3,
      "bottom" : "input_1",
      "weights" : {

      },
      "Nx" : 3,
      "pad_mode" : 0,
      "pad_value" : 0,
      "Ny" : 3,
      "n_parallel" : 1
    },
    {
      "size_of_axes" : 0,
      "bottom" : "var_4053",
      "weights" : {

      },
      "nd_axis" : 0,
      "debug_info" : "squeeze",
      "version" : 1,
      "top" : "squeeze_out",
      "type" : "squeeze",
      "name" : "squeeze",
      "squeeze_all" : true
    },
    {
      "bottom" : "squeeze_out",
      "alpha" : 255,
      "beta" : 0,
      "mode" : 6,
      "weights" : {

      },
      "debug_info" : "activation",
      "top" : "activation_out",
      "type" : "activation",
      "name" : "activation",
      "attributes" : {
        "is_output" : 1
      }
    }
  ],
  "transform_params" : {
    "input" : {
      "bias_a" : 0,
      "bias_g" : 0,
      "bias_r" : 0,
      "bias_b" : 0,
      "center_mean" : 0,
      "is_network_bgr" : 0,
      "scale" : 0.0039215688593685627
    }
  },
  "storage" : "model.espresso.weights",
  "metadata_in_weights" : [

  ],
  "properties" : {

  },
  "analyses" : {

  },
  "format_version" : 200
}